{"format": "layers-model", "generatedBy": null, "convertedBy": "TensorFlow.js Converter v3.18.0", "modelTopology": null, "weightsManifest": [{"paths": ["group1-shard1of23.bin", "group1-shard2of23.bin", "group1-shard3of23.bin", "group1-shard4of23.bin", "group1-shard5of23.bin", "group1-shard6of23.bin", "group1-shard7of23.bin", "group1-shard8of23.bin", "group1-shard9of23.bin", "group1-shard10of23.bin", "group1-shard11of23.bin", "group1-shard12of23.bin", "group1-shard13of23.bin", "group1-shard14of23.bin", "group1-shard15of23.bin", "group1-shard16of23.bin", "group1-shard17of23.bin", "group1-shard18of23.bin", "group1-shard19of23.bin", "group1-shard20of23.bin", "group1-shard21of23.bin", "group1-shard22of23.bin", "group1-shard23of23.bin"], "weights": [{"name": "conv1/kernel", "shape": [7, 7, 3, 64], "dtype": "float32"}, {"name": "conv1/bias", "shape": [64], "dtype": "float32"}, {"name": "bn_conv1/gamma", "shape": [64], "dtype": "float32"}, {"name": "bn_conv1/beta", "shape": [64], "dtype": "float32"}, {"name": "res2a_branch2a/kernel", "shape": [1, 1, 64, 64], "dtype": "float32"}, {"name": "res2a_branch2a/bias", "shape": [64], "dtype": "float32"}, {"name": "bn2a_branch2a/gamma", "shape": [64], "dtype": "float32"}, {"name": "bn2a_branch2a/beta", "shape": [64], "dtype": "float32"}, {"name": "res2a_branch2b/kernel", "shape": [3, 3, 64, 64], "dtype": "float32"}, {"name": "res2a_branch2b/bias", "shape": [64], "dtype": "float32"}, {"name": "bn2a_branch2b/gamma", "shape": [64], "dtype": "float32"}, {"name": "bn2a_branch2b/beta", "shape": [64], "dtype": "float32"}, {"name": "res2a_branch2c/kernel", "shape": [1, 1, 64, 256], "dtype": "float32"}, {"name": "res2a_branch2c/bias", "shape": [256], "dtype": "float32"}, {"name": "res2a_branch1/kernel", "shape": [1, 1, 64, 256], "dtype": "float32"}, {"name": "res2a_branch1/bias", "shape": [256], "dtype": "float32"}, {"name": "bn2a_branch2c/gamma", "shape": [256], "dtype": "float32"}, {"name": "bn2a_branch2c/beta", "shape": [256], "dtype": "float32"}, {"name": "bn2a_branch1/gamma", "shape": [256], "dtype": "float32"}, {"name": "bn2a_branch1/beta", "shape": [256], "dtype": "float32"}, {"name": "res2b_branch2a/kernel", "shape": [1, 1, 256, 64], "dtype": "float32"}, {"name": "res2b_branch2a/bias", "shape": [64], "dtype": "float32"}, {"name": "bn2b_branch2a/gamma", "shape": [64], "dtype": "float32"}, {"name": "bn2b_branch2a/beta", "shape": [64], "dtype": "float32"}, {"name": "res2b_branch2b/kernel", "shape": [3, 3, 64, 64], "dtype": "float32"}, {"name": "res2b_branch2b/bias", "shape": [64], "dtype": "float32"}, {"name": "bn2b_branch2b/gamma", "shape": [64], "dtype": "float32"}, {"name": "bn2b_branch2b/beta", "shape": [64], "dtype": "float32"}, {"name": "res2b_branch2c/kernel", "shape": [1, 1, 64, 256], "dtype": "float32"}, {"name": "res2b_branch2c/bias", "shape": [256], "dtype": "float32"}, {"name": "bn2b_branch2c/gamma", "shape": [256], "dtype": "float32"}, {"name": "bn2b_branch2c/beta", "shape": [256], "dtype": "float32"}, {"name": "res2c_branch2a/kernel", "shape": [1, 1, 256, 64], "dtype": "float32"}, {"name": "res2c_branch2a/bias", "shape": [64], "dtype": "float32"}, {"name": "bn2c_branch2a/gamma", "shape": [64], "dtype": "float32"}, {"name": "bn2c_branch2a/beta", "shape": [64], "dtype": "float32"}, {"name": "res2c_branch2b/kernel", "shape": [3, 3, 64, 64], "dtype": "float32"}, {"name": "res2c_branch2b/bias", "shape": [64], "dtype": "float32"}, {"name": "bn2c_branch2b/gamma", "shape": [64], "dtype": "float32"}, {"name": "bn2c_branch2b/beta", "shape": [64], "dtype": "float32"}, {"name": "res2c_branch2c/kernel", "shape": [1, 1, 64, 256], "dtype": "float32"}, {"name": "res2c_branch2c/bias", "shape": [256], "dtype": "float32"}, {"name": "bn2c_branch2c/gamma", "shape": [256], "dtype": "float32"}, {"name": "bn2c_branch2c/beta", "shape": [256], "dtype": "float32"}, {"name": "res3a_branch2a/kernel", "shape": [1, 1, 256, 128], "dtype": "float32"}, {"name": "res3a_branch2a/bias", "shape": [128], "dtype": "float32"}, {"name": "bn3a_branch2a/gamma", "shape": [128], "dtype": "float32"}, {"name": "bn3a_branch2a/beta", "shape": [128], "dtype": "float32"}, {"name": "res3a_branch2b/kernel", "shape": [3, 3, 128, 128], "dtype": "float32"}, {"name": "res3a_branch2b/bias", "shape": [128], "dtype": "float32"}, {"name": "bn3a_branch2b/gamma", "shape": [128], "dtype": "float32"}, {"name": "bn3a_branch2b/beta", "shape": [128], "dtype": "float32"}, {"name": "res3a_branch2c/kernel", "shape": [1, 1, 128, 512], "dtype": "float32"}, {"name": "res3a_branch2c/bias", "shape": [512], "dtype": "float32"}, {"name": "res3a_branch1/kernel", "shape": [1, 1, 256, 512], "dtype": "float32"}, {"name": "res3a_branch1/bias", "shape": [512], "dtype": "float32"}, {"name": "bn3a_branch2c/gamma", "shape": [512], "dtype": "float32"}, {"name": "bn3a_branch2c/beta", "shape": [512], "dtype": "float32"}, {"name": "bn3a_branch1/gamma", "shape": [512], "dtype": "float32"}, {"name": "bn3a_branch1/beta", "shape": [512], "dtype": "float32"}, {"name": "res3b_branch2a/kernel", "shape": [1, 1, 512, 128], "dtype": "float32"}, {"name": "res3b_branch2a/bias", "shape": [128], "dtype": "float32"}, {"name": "bn3b_branch2a/gamma", "shape": [128], "dtype": "float32"}, {"name": "bn3b_branch2a/beta", "shape": [128], "dtype": "float32"}, {"name": "res3b_branch2b/kernel", "shape": [3, 3, 128, 128], "dtype": "float32"}, {"name": "res3b_branch2b/bias", "shape": [128], "dtype": "float32"}, {"name": "bn3b_branch2b/gamma", "shape": [128], "dtype": "float32"}, {"name": "bn3b_branch2b/beta", "shape": [128], "dtype": "float32"}, {"name": "res3b_branch2c/kernel", "shape": [1, 1, 128, 512], "dtype": "float32"}, {"name": "res3b_branch2c/bias", "shape": [512], "dtype": "float32"}, {"name": "bn3b_branch2c/gamma", "shape": [512], "dtype": "float32"}, {"name": "bn3b_branch2c/beta", "shape": [512], "dtype": "float32"}, {"name": "res3c_branch2a/kernel", "shape": [1, 1, 512, 128], "dtype": "float32"}, {"name": "res3c_branch2a/bias", "shape": [128], "dtype": "float32"}, {"name": "bn3c_branch2a/gamma", "shape": [128], "dtype": "float32"}, {"name": "bn3c_branch2a/beta", "shape": [128], "dtype": "float32"}, {"name": "res3c_branch2b/kernel", "shape": [3, 3, 128, 128], "dtype": "float32"}, {"name": "res3c_branch2b/bias", "shape": [128], "dtype": "float32"}, {"name": "bn3c_branch2b/gamma", "shape": [128], "dtype": "float32"}, {"name": "bn3c_branch2b/beta", "shape": [128], "dtype": "float32"}, {"name": "res3c_branch2c/kernel", "shape": [1, 1, 128, 512], "dtype": "float32"}, {"name": "res3c_branch2c/bias", "shape": [512], "dtype": "float32"}, {"name": "bn3c_branch2c/gamma", "shape": [512], "dtype": "float32"}, {"name": "bn3c_branch2c/beta", "shape": [512], "dtype": "float32"}, {"name": "res3d_branch2a/kernel", "shape": [1, 1, 512, 128], "dtype": "float32"}, {"name": "res3d_branch2a/bias", "shape": [128], "dtype": "float32"}, {"name": "bn3d_branch2a/gamma", "shape": [128], "dtype": "float32"}, {"name": "bn3d_branch2a/beta", "shape": [128], "dtype": "float32"}, {"name": "res3d_branch2b/kernel", "shape": [3, 3, 128, 128], "dtype": "float32"}, {"name": "res3d_branch2b/bias", "shape": [128], "dtype": "float32"}, {"name": "bn3d_branch2b/gamma", "shape": [128], "dtype": "float32"}, {"name": "bn3d_branch2b/beta", "shape": [128], "dtype": "float32"}, {"name": "res3d_branch2c/kernel", "shape": [1, 1, 128, 512], "dtype": "float32"}, {"name": "res3d_branch2c/bias", "shape": [512], "dtype": "float32"}, {"name": "bn3d_branch2c/gamma", "shape": [512], "dtype": "float32"}, {"name": "bn3d_branch2c/beta", "shape": [512], "dtype": "float32"}, {"name": "res4a_branch2a/kernel", "shape": [1, 1, 512, 256], "dtype": "float32"}, {"name": "res4a_branch2a/bias", "shape": [256], "dtype": "float32"}, {"name": "bn4a_branch2a/gamma", "shape": [256], "dtype": "float32"}, {"name": "bn4a_branch2a/beta", "shape": [256], "dtype": "float32"}, {"name": "res4a_branch2b/kernel", "shape": [3, 3, 256, 256], "dtype": "float32"}, {"name": "res4a_branch2b/bias", "shape": [256], "dtype": "float32"}, {"name": "bn4a_branch2b/gamma", "shape": [256], "dtype": "float32"}, {"name": "bn4a_branch2b/beta", "shape": [256], "dtype": "float32"}, {"name": "res4a_branch2c/kernel", "shape": [1, 1, 256, 1024], "dtype": "float32"}, {"name": "res4a_branch2c/bias", "shape": [1024], "dtype": "float32"}, {"name": "res4a_branch1/kernel", "shape": [1, 1, 512, 1024], "dtype": "float32"}, {"name": "res4a_branch1/bias", "shape": [1024], "dtype": "float32"}, {"name": "bn4a_branch2c/gamma", "shape": [1024], "dtype": "float32"}, {"name": "bn4a_branch2c/beta", "shape": [1024], "dtype": "float32"}, {"name": "bn4a_branch1/gamma", "shape": [1024], "dtype": "float32"}, {"name": "bn4a_branch1/beta", "shape": [1024], "dtype": "float32"}, {"name": "res4b_branch2a/kernel", "shape": [1, 1, 1024, 256], "dtype": "float32"}, {"name": "res4b_branch2a/bias", "shape": [256], "dtype": "float32"}, {"name": "bn4b_branch2a/gamma", "shape": [256], "dtype": "float32"}, {"name": "bn4b_branch2a/beta", "shape": [256], "dtype": "float32"}, {"name": "res4b_branch2b/kernel", "shape": [3, 3, 256, 256], "dtype": "float32"}, {"name": "res4b_branch2b/bias", "shape": [256], "dtype": "float32"}, {"name": "bn4b_branch2b/gamma", "shape": [256], "dtype": "float32"}, {"name": "bn4b_branch2b/beta", "shape": [256], "dtype": "float32"}, {"name": "res4b_branch2c/kernel", "shape": [1, 1, 256, 1024], "dtype": "float32"}, {"name": "res4b_branch2c/bias", "shape": [1024], "dtype": "float32"}, {"name": "bn4b_branch2c/gamma", "shape": [1024], "dtype": "float32"}, {"name": "bn4b_branch2c/beta", "shape": [1024], "dtype": "float32"}, {"name": "res4c_branch2a/kernel", "shape": [1, 1, 1024, 256], "dtype": "float32"}, {"name": "res4c_branch2a/bias", "shape": [256], "dtype": "float32"}, {"name": "bn4c_branch2a/gamma", "shape": [256], "dtype": "float32"}, {"name": "bn4c_branch2a/beta", "shape": [256], "dtype": "float32"}, {"name": "res4c_branch2b/kernel", "shape": [3, 3, 256, 256], "dtype": "float32"}, {"name": "res4c_branch2b/bias", "shape": [256], "dtype": "float32"}, {"name": "bn4c_branch2b/gamma", "shape": [256], "dtype": "float32"}, {"name": "bn4c_branch2b/beta", "shape": [256], "dtype": "float32"}, {"name": "res4c_branch2c/kernel", "shape": [1, 1, 256, 1024], "dtype": "float32"}, {"name": "res4c_branch2c/bias", "shape": [1024], "dtype": "float32"}, {"name": "bn4c_branch2c/gamma", "shape": [1024], "dtype": "float32"}, {"name": "bn4c_branch2c/beta", "shape": [1024], "dtype": "float32"}, {"name": "res4d_branch2a/kernel", "shape": [1, 1, 1024, 256], "dtype": "float32"}, {"name": "res4d_branch2a/bias", "shape": [256], "dtype": "float32"}, {"name": "bn4d_branch2a/gamma", "shape": [256], "dtype": "float32"}, {"name": "bn4d_branch2a/beta", "shape": [256], "dtype": "float32"}, {"name": "res4d_branch2b/kernel", "shape": [3, 3, 256, 256], "dtype": "float32"}, {"name": "res4d_branch2b/bias", "shape": [256], "dtype": "float32"}, {"name": "bn4d_branch2b/gamma", "shape": [256], "dtype": "float32"}, {"name": "bn4d_branch2b/beta", "shape": [256], "dtype": "float32"}, {"name": "res4d_branch2c/kernel", "shape": [1, 1, 256, 1024], "dtype": "float32"}, {"name": "res4d_branch2c/bias", "shape": [1024], "dtype": "float32"}, {"name": "bn4d_branch2c/gamma", "shape": [1024], "dtype": "float32"}, {"name": "bn4d_branch2c/beta", "shape": [1024], "dtype": "float32"}, {"name": "res4e_branch2a/kernel", "shape": [1, 1, 1024, 256], "dtype": "float32"}, {"name": "res4e_branch2a/bias", "shape": [256], "dtype": "float32"}, {"name": "bn4e_branch2a/gamma", "shape": [256], "dtype": "float32"}, {"name": "bn4e_branch2a/beta", "shape": [256], "dtype": "float32"}, {"name": "res4e_branch2b/kernel", "shape": [3, 3, 256, 256], "dtype": "float32"}, {"name": "res4e_branch2b/bias", "shape": [256], "dtype": "float32"}, {"name": "bn4e_branch2b/gamma", "shape": [256], "dtype": "float32"}, {"name": "bn4e_branch2b/beta", "shape": [256], "dtype": "float32"}, {"name": "res4e_branch2c/kernel", "shape": [1, 1, 256, 1024], "dtype": "float32"}, {"name": "res4e_branch2c/bias", "shape": [1024], "dtype": "float32"}, {"name": "bn4e_branch2c/gamma", "shape": [1024], "dtype": "float32"}, {"name": "bn4e_branch2c/beta", "shape": [1024], "dtype": "float32"}, {"name": "res4f_branch2a/kernel", "shape": [1, 1, 1024, 256], "dtype": "float32"}, {"name": "res4f_branch2a/bias", "shape": [256], "dtype": "float32"}, {"name": "bn4f_branch2a/gamma", "shape": [256], "dtype": "float32"}, {"name": "bn4f_branch2a/beta", "shape": [256], "dtype": "float32"}, {"name": "res4f_branch2b/kernel", "shape": [3, 3, 256, 256], "dtype": "float32"}, {"name": "res4f_branch2b/bias", "shape": [256], "dtype": "float32"}, {"name": "bn4f_branch2b/gamma", "shape": [256], "dtype": "float32"}, {"name": "bn4f_branch2b/beta", "shape": [256], "dtype": "float32"}, {"name": "res4f_branch2c/kernel", "shape": [1, 1, 256, 1024], "dtype": "float32"}, {"name": "res4f_branch2c/bias", "shape": [1024], "dtype": "float32"}, {"name": "bn4f_branch2c/gamma", "shape": [1024], "dtype": "float32"}, {"name": "bn4f_branch2c/beta", "shape": [1024], "dtype": "float32"}, {"name": "res5a_branch2a/kernel", "shape": [1, 1, 1024, 512], "dtype": "float32"}, {"name": "res5a_branch2a/bias", "shape": [512], "dtype": "float32"}, {"name": "bn5a_branch2a/gamma", "shape": [512], "dtype": "float32"}, {"name": "bn5a_branch2a/beta", "shape": [512], "dtype": "float32"}, {"name": "res5a_branch2b/kernel", "shape": [3, 3, 512, 512], "dtype": "float32"}, {"name": "res5a_branch2b/bias", "shape": [512], "dtype": "float32"}, {"name": "bn5a_branch2b/gamma", "shape": [512], "dtype": "float32"}, {"name": "bn5a_branch2b/beta", "shape": [512], "dtype": "float32"}, {"name": "res5a_branch2c/kernel", "shape": [1, 1, 512, 2048], "dtype": "float32"}, {"name": "res5a_branch2c/bias", "shape": [2048], "dtype": "float32"}, {"name": "res5a_branch1/kernel", "shape": [1, 1, 1024, 2048], "dtype": "float32"}, {"name": "res5a_branch1/bias", "shape": [2048], "dtype": "float32"}, {"name": "bn5a_branch2c/gamma", "shape": [2048], "dtype": "float32"}, {"name": "bn5a_branch2c/beta", "shape": [2048], "dtype": "float32"}, {"name": "bn5a_branch1/gamma", "shape": [2048], "dtype": "float32"}, {"name": "bn5a_branch1/beta", "shape": [2048], "dtype": "float32"}, {"name": "res5b_branch2a/kernel", "shape": [1, 1, 2048, 512], "dtype": "float32"}, {"name": "res5b_branch2a/bias", "shape": [512], "dtype": "float32"}, {"name": "bn5b_branch2a/gamma", "shape": [512], "dtype": "float32"}, {"name": "bn5b_branch2a/beta", "shape": [512], "dtype": "float32"}, {"name": "res5b_branch2b/kernel", "shape": [3, 3, 512, 512], "dtype": "float32"}, {"name": "res5b_branch2b/bias", "shape": [512], "dtype": "float32"}, {"name": "bn5b_branch2b/gamma", "shape": [512], "dtype": "float32"}, {"name": "bn5b_branch2b/beta", "shape": [512], "dtype": "float32"}, {"name": "res5b_branch2c/kernel", "shape": [1, 1, 512, 2048], "dtype": "float32"}, {"name": "res5b_branch2c/bias", "shape": [2048], "dtype": "float32"}, {"name": "bn5b_branch2c/gamma", "shape": [2048], "dtype": "float32"}, {"name": "bn5b_branch2c/beta", "shape": [2048], "dtype": "float32"}, {"name": "res5c_branch2a/kernel", "shape": [1, 1, 2048, 512], "dtype": "float32"}, {"name": "res5c_branch2a/bias", "shape": [512], "dtype": "float32"}, {"name": "bn5c_branch2a/gamma", "shape": [512], "dtype": "float32"}, {"name": "bn5c_branch2a/beta", "shape": [512], "dtype": "float32"}, {"name": "res5c_branch2b/kernel", "shape": [3, 3, 512, 512], "dtype": "float32"}, {"name": "res5c_branch2b/bias", "shape": [512], "dtype": "float32"}, {"name": "bn5c_branch2b/gamma", "shape": [512], "dtype": "float32"}, {"name": "bn5c_branch2b/beta", "shape": [512], "dtype": "float32"}, {"name": "res5c_branch2c/kernel", "shape": [1, 1, 512, 2048], "dtype": "float32"}, {"name": "res5c_branch2c/bias", "shape": [2048], "dtype": "float32"}, {"name": "bn5c_branch2c/gamma", "shape": [2048], "dtype": "float32"}, {"name": "bn5c_branch2c/beta", "shape": [2048], "dtype": "float32"}, {"name": "bn_conv1/moving_mean", "shape": [64], "dtype": "float32"}, {"name": "bn_conv1/moving_variance", "shape": [64], "dtype": "float32"}, {"name": "bn2a_branch2a/moving_mean", "shape": [64], "dtype": "float32"}, {"name": "bn2a_branch2a/moving_variance", "shape": [64], "dtype": "float32"}, {"name": "bn2a_branch2b/moving_mean", "shape": [64], "dtype": "float32"}, {"name": "bn2a_branch2b/moving_variance", "shape": [64], "dtype": "float32"}, {"name": "bn2a_branch2c/moving_mean", "shape": [256], "dtype": "float32"}, {"name": "bn2a_branch2c/moving_variance", "shape": [256], "dtype": "float32"}, {"name": "bn2a_branch1/moving_mean", "shape": [256], "dtype": "float32"}, {"name": "bn2a_branch1/moving_variance", "shape": [256], "dtype": "float32"}, {"name": "bn2b_branch2a/moving_mean", "shape": [64], "dtype": "float32"}, {"name": "bn2b_branch2a/moving_variance", "shape": [64], "dtype": "float32"}, {"name": "bn2b_branch2b/moving_mean", "shape": [64], "dtype": "float32"}, {"name": "bn2b_branch2b/moving_variance", "shape": [64], "dtype": "float32"}, {"name": "bn2b_branch2c/moving_mean", "shape": [256], "dtype": "float32"}, {"name": "bn2b_branch2c/moving_variance", "shape": [256], "dtype": "float32"}, {"name": "bn2c_branch2a/moving_mean", "shape": [64], "dtype": "float32"}, {"name": "bn2c_branch2a/moving_variance", "shape": [64], "dtype": "float32"}, {"name": "bn2c_branch2b/moving_mean", "shape": [64], "dtype": "float32"}, {"name": "bn2c_branch2b/moving_variance", "shape": [64], "dtype": "float32"}, {"name": "bn2c_branch2c/moving_mean", "shape": [256], "dtype": "float32"}, {"name": "bn2c_branch2c/moving_variance", "shape": [256], "dtype": "float32"}, {"name": "bn3a_branch2a/moving_mean", "shape": [128], "dtype": "float32"}, {"name": "bn3a_branch2a/moving_variance", "shape": [128], "dtype": "float32"}, {"name": "bn3a_branch2b/moving_mean", "shape": [128], "dtype": "float32"}, {"name": "bn3a_branch2b/moving_variance", "shape": [128], "dtype": "float32"}, {"name": "bn3a_branch2c/moving_mean", "shape": [512], "dtype": "float32"}, {"name": "bn3a_branch2c/moving_variance", "shape": [512], "dtype": "float32"}, {"name": "bn3a_branch1/moving_mean", "shape": [512], "dtype": "float32"}, {"name": "bn3a_branch1/moving_variance", "shape": [512], "dtype": "float32"}, {"name": "bn3b_branch2a/moving_mean", "shape": [128], "dtype": "float32"}, {"name": "bn3b_branch2a/moving_variance", "shape": [128], "dtype": "float32"}, {"name": "bn3b_branch2b/moving_mean", "shape": [128], "dtype": "float32"}, {"name": "bn3b_branch2b/moving_variance", "shape": [128], "dtype": "float32"}, {"name": "bn3b_branch2c/moving_mean", "shape": [512], "dtype": "float32"}, {"name": "bn3b_branch2c/moving_variance", "shape": [512], "dtype": "float32"}, {"name": "bn3c_branch2a/moving_mean", "shape": [128], "dtype": "float32"}, {"name": "bn3c_branch2a/moving_variance", "shape": [128], "dtype": "float32"}, {"name": "bn3c_branch2b/moving_mean", "shape": [128], "dtype": "float32"}, {"name": "bn3c_branch2b/moving_variance", "shape": [128], "dtype": "float32"}, {"name": "bn3c_branch2c/moving_mean", "shape": [512], "dtype": "float32"}, {"name": "bn3c_branch2c/moving_variance", "shape": [512], "dtype": "float32"}, {"name": "bn3d_branch2a/moving_mean", "shape": [128], "dtype": "float32"}, {"name": "bn3d_branch2a/moving_variance", "shape": [128], "dtype": "float32"}, {"name": "bn3d_branch2b/moving_mean", "shape": [128], "dtype": "float32"}, {"name": "bn3d_branch2b/moving_variance", "shape": [128], "dtype": "float32"}, {"name": "bn3d_branch2c/moving_mean", "shape": [512], "dtype": "float32"}, {"name": "bn3d_branch2c/moving_variance", "shape": [512], "dtype": "float32"}, {"name": "bn4a_branch2a/moving_mean", "shape": [256], "dtype": "float32"}, {"name": "bn4a_branch2a/moving_variance", "shape": [256], "dtype": "float32"}, {"name": "bn4a_branch2b/moving_mean", "shape": [256], "dtype": "float32"}, {"name": "bn4a_branch2b/moving_variance", "shape": [256], "dtype": "float32"}, {"name": "bn4a_branch2c/moving_mean", "shape": [1024], "dtype": "float32"}, {"name": "bn4a_branch2c/moving_variance", "shape": [1024], "dtype": "float32"}, {"name": "bn4a_branch1/moving_mean", "shape": [1024], "dtype": "float32"}, {"name": "bn4a_branch1/moving_variance", "shape": [1024], "dtype": "float32"}, {"name": "bn4b_branch2a/moving_mean", "shape": [256], "dtype": "float32"}, {"name": "bn4b_branch2a/moving_variance", "shape": [256], "dtype": "float32"}, {"name": "bn4b_branch2b/moving_mean", "shape": [256], "dtype": "float32"}, {"name": "bn4b_branch2b/moving_variance", "shape": [256], "dtype": "float32"}, {"name": "bn4b_branch2c/moving_mean", "shape": [1024], "dtype": "float32"}, {"name": "bn4b_branch2c/moving_variance", "shape": [1024], "dtype": "float32"}, {"name": "bn4c_branch2a/moving_mean", "shape": [256], "dtype": "float32"}, {"name": "bn4c_branch2a/moving_variance", "shape": [256], "dtype": "float32"}, {"name": "bn4c_branch2b/moving_mean", "shape": [256], "dtype": "float32"}, {"name": "bn4c_branch2b/moving_variance", "shape": [256], "dtype": "float32"}, {"name": "bn4c_branch2c/moving_mean", "shape": [1024], "dtype": "float32"}, {"name": "bn4c_branch2c/moving_variance", "shape": [1024], "dtype": "float32"}, {"name": "bn4d_branch2a/moving_mean", "shape": [256], "dtype": "float32"}, {"name": "bn4d_branch2a/moving_variance", "shape": [256], "dtype": "float32"}, {"name": "bn4d_branch2b/moving_mean", "shape": [256], "dtype": "float32"}, {"name": "bn4d_branch2b/moving_variance", "shape": [256], "dtype": "float32"}, {"name": "bn4d_branch2c/moving_mean", "shape": [1024], "dtype": "float32"}, {"name": "bn4d_branch2c/moving_variance", "shape": [1024], "dtype": "float32"}, {"name": "bn4e_branch2a/moving_mean", "shape": [256], "dtype": "float32"}, {"name": "bn4e_branch2a/moving_variance", "shape": [256], "dtype": "float32"}, {"name": "bn4e_branch2b/moving_mean", "shape": [256], "dtype": "float32"}, {"name": "bn4e_branch2b/moving_variance", "shape": [256], "dtype": "float32"}, {"name": "bn4e_branch2c/moving_mean", "shape": [1024], "dtype": "float32"}, {"name": "bn4e_branch2c/moving_variance", "shape": [1024], "dtype": "float32"}, {"name": "bn4f_branch2a/moving_mean", "shape": [256], "dtype": "float32"}, {"name": "bn4f_branch2a/moving_variance", "shape": [256], "dtype": "float32"}, {"name": "bn4f_branch2b/moving_mean", "shape": [256], "dtype": "float32"}, {"name": "bn4f_branch2b/moving_variance", "shape": [256], "dtype": "float32"}, {"name": "bn4f_branch2c/moving_mean", "shape": [1024], "dtype": "float32"}, {"name": "bn4f_branch2c/moving_variance", "shape": [1024], "dtype": "float32"}, {"name": "bn5a_branch2a/moving_mean", "shape": [512], "dtype": "float32"}, {"name": "bn5a_branch2a/moving_variance", "shape": [512], "dtype": "float32"}, {"name": "bn5a_branch2b/moving_mean", "shape": [512], "dtype": "float32"}, {"name": "bn5a_branch2b/moving_variance", "shape": [512], "dtype": "float32"}, {"name": "bn5a_branch2c/moving_mean", "shape": [2048], "dtype": "float32"}, {"name": "bn5a_branch2c/moving_variance", "shape": [2048], "dtype": "float32"}, {"name": "bn5a_branch1/moving_mean", "shape": [2048], "dtype": "float32"}, {"name": "bn5a_branch1/moving_variance", "shape": [2048], "dtype": "float32"}, {"name": "bn5b_branch2a/moving_mean", "shape": [512], "dtype": "float32"}, {"name": "bn5b_branch2a/moving_variance", "shape": [512], "dtype": "float32"}, {"name": "bn5b_branch2b/moving_mean", "shape": [512], "dtype": "float32"}, {"name": "bn5b_branch2b/moving_variance", "shape": [512], "dtype": "float32"}, {"name": "bn5b_branch2c/moving_mean", "shape": [2048], "dtype": "float32"}, {"name": "bn5b_branch2c/moving_variance", "shape": [2048], "dtype": "float32"}, {"name": "bn5c_branch2a/moving_mean", "shape": [512], "dtype": "float32"}, {"name": "bn5c_branch2a/moving_variance", "shape": [512], "dtype": "float32"}, {"name": "bn5c_branch2b/moving_mean", "shape": [512], "dtype": "float32"}, {"name": "bn5c_branch2b/moving_variance", "shape": [512], "dtype": "float32"}, {"name": "bn5c_branch2c/moving_mean", "shape": [2048], "dtype": "float32"}, {"name": "bn5c_branch2c/moving_variance", "shape": [2048], "dtype": "float32"}, {"name": "dense_1/kernel", "shape": [2048, 5], "dtype": "float32"}, {"name": "dense_1/bias", "shape": [5], "dtype": "float32"}]}]}