{"format": "graph-model", "generatedBy": "2.15.0", "convertedBy": "TensorFlow.js Converter v4.22.0", "signature": {"inputs": {"resnet50_input": {"name": "resnet50_input:0", "dtype": "DT_FLOAT", "tensorShape": {"dim": [{"size": "-1"}, {"size": "-1"}, {"size": "-1"}, {"size": "3"}]}}}, "outputs": {"dense": {"name": "Identity:0", "dtype": "DT_FLOAT", "tensorShape": {"dim": [{"size": "-1"}, {"size": "5"}]}}}}, "modelTopology": {"node": [{"name": "StatefulPartitionedCall/sequential/resnet50/conv1_pad/Pad/paddings", "op": "Const", "attr": {"value": {"tensor": {"dtype": "DT_INT32", "tensorShape": {"dim": [{"size": "4"}, {"size": "2"}]}}}, "dtype": {"type": "DT_INT32"}}}, {"name": "StatefulPartitionedCall/sequential/resnet50/pool1_pad/Pad/paddings", "op": "Const", "attr": {"value": {"tensor": {"dtype": "DT_INT32", "tensorShape": {"dim": [{"size": "4"}, {"size": "2"}]}}}, "dtype": {"type": "DT_INT32"}}}, {"name": "StatefulPartitionedCall/sequential/resnet50/avg_pool/Mean/reduction_indices", "op": "Const", "attr": {"value": {"tensor": {"dtype": "DT_INT32", "tensorShape": {"dim": [{"size": "2"}]}}}, "dtype": {"type": "DT_INT32"}}}, {"name": "StatefulPartitionedCall/sequential/dense/MatMul/ReadVariableOp", "op": "Const", "attr": {"value": {"tensor": {"dtype": "DT_FLOAT", "tensorShape": {"dim": [{"size": "2048"}, {"size": "5"}]}}}, "dtype": {"type": "DT_FLOAT"}}}, {"name": "StatefulPartitionedCall/sequential/dense/BiasAdd/ReadVariableOp", "op": "Const", "attr": {"value": {"tensor": {"dtype": "DT_FLOAT", "tensorShape": {"dim": [{"size": "5"}]}}}, "dtype": {"type": "DT_FLOAT"}}}, {"name": "resnet50_input", "op": "Placeholder", "attr": {"shape": {"shape": {"dim": [{"size": "-1"}, {"size": "-1"}, {"size": "-1"}, {"size": "3"}]}}, "dtype": {"type": "DT_FLOAT"}}}, {"name": "StatefulPartitionedCall/sequential/resnet50/conv1_conv/Conv2D_weights", "op": "Const", "attr": {"value": {"tensor": {"dtype": "DT_FLOAT", "tensorShape": {"dim": [{"size": "7"}, {"size": "7"}, {"size": "3"}, {"size": "64"}]}}}, "dtype": {"type": "DT_FLOAT"}}}, {"name": "StatefulPartitionedCall/sequential/resnet50/conv4_block5_1_conv/Conv2D_bn_offset", "op": "Const", "attr": {"value": {"tensor": {"dtype": "DT_FLOAT", "tensorShape": {"dim": [{"size": "256"}]}}}, "dtype": {"type": "DT_FLOAT"}}}, {"name": "StatefulPartitionedCall/sequential/resnet50/conv1_conv/Conv2D_bn_offset", "op": "Const", "attr": {"value": {"tensor": {"dtype": "DT_FLOAT", "tensorShape": {"dim": [{"size": "64"}]}}}, "dtype": {"type": "DT_FLOAT"}}}, {"name": "StatefulPartitionedCall/sequential/resnet50/conv2_block1_0_conv/Conv2D_weights", "op": "Const", "attr": {"value": {"tensor": {"dtype": "DT_FLOAT", "tensorShape": {"dim": [{"size": "1"}, {"size": "1"}, {"size": "64"}, {"size": "256"}]}}}, "dtype": {"type": "DT_FLOAT"}}}, {"name": "StatefulPartitionedCall/sequential/resnet50/conv2_block1_0_conv/Conv2D_bn_offset", "op": "Const", "attr": {"value": {"tensor": {"dtype": "DT_FLOAT", "tensorShape": {"dim": [{"size": "256"}]}}}, "dtype": {"type": "DT_FLOAT"}}}, {"name": "StatefulPartitionedCall/sequential/resnet50/conv2_block1_1_conv/Conv2D_weights", "op": "Const", "attr": {"value": {"tensor": {"dtype": "DT_FLOAT", "tensorShape": {"dim": [{"size": "1"}, {"size": "1"}, {"size": "64"}, {"size": "64"}]}}}, "dtype": {"type": "DT_FLOAT"}}}, {"name": "StatefulPartitionedCall/sequential/resnet50/conv4_block5_2_conv/Conv2D_weights", "op": "Const", "attr": {"value": {"tensor": {"dtype": "DT_FLOAT", "tensorShape": {"dim": [{"size": "3"}, {"size": "3"}, {"size": "256"}, {"size": "256"}]}}}, "dtype": {"type": "DT_FLOAT"}}}, {"name": "StatefulPartitionedCall/sequential/resnet50/conv2_block1_1_conv/Conv2D_bn_offset", "op": "Const", "attr": {"value": {"tensor": {"dtype": "DT_FLOAT", "tensorShape": {"dim": [{"size": "64"}]}}}, "dtype": {"type": "DT_FLOAT"}}}, {"name": "StatefulPartitionedCall/sequential/resnet50/conv5_block2_3_conv/Conv2D_bn_offset", "op": "Const", "attr": {"value": {"tensor": {"dtype": "DT_FLOAT", "tensorShape": {"dim": [{"size": "2048"}]}}}, "dtype": {"type": "DT_FLOAT"}}}, {"name": "StatefulPartitionedCall/sequential/resnet50/conv2_block1_2_conv/Conv2D_weights", "op": "Const", "attr": {"value": {"tensor": {"dtype": "DT_FLOAT", "tensorShape": {"dim": [{"size": "3"}, {"size": "3"}, {"size": "64"}, {"size": "64"}]}}}, "dtype": {"type": "DT_FLOAT"}}}, {"name": "StatefulPartitionedCall/sequential/resnet50/conv4_block5_2_conv/Conv2D_bn_offset", "op": "Const", "attr": {"value": {"tensor": {"dtype": "DT_FLOAT", "tensorShape": {"dim": [{"size": "256"}]}}}, "dtype": {"type": "DT_FLOAT"}}}, {"name": "StatefulPartitionedCall/sequential/resnet50/conv2_block1_2_conv/Conv2D_bn_offset", "op": "Const", "attr": {"value": {"tensor": {"dtype": "DT_FLOAT", "tensorShape": {"dim": [{"size": "64"}]}}}, "dtype": {"type": "DT_FLOAT"}}}, {"name": "StatefulPartitionedCall/sequential/resnet50/conv2_block1_3_conv/Conv2D_weights", "op": "Const", "attr": {"value": {"tensor": {"dtype": "DT_FLOAT", "tensorShape": {"dim": [{"size": "1"}, {"size": "1"}, {"size": "64"}, {"size": "256"}]}}}, "dtype": {"type": "DT_FLOAT"}}}, {"name": "StatefulPartitionedCall/sequential/resnet50/conv2_block1_3_conv/Conv2D_bn_offset", "op": "Const", "attr": {"value": {"tensor": {"dtype": "DT_FLOAT", "tensorShape": {"dim": [{"size": "256"}]}}}, "dtype": {"type": "DT_FLOAT"}}}, {"name": "StatefulPartitionedCall/sequential/resnet50/conv2_block2_1_conv/Conv2D_weights", "op": "Const", "attr": {"value": {"tensor": {"dtype": "DT_FLOAT", "tensorShape": {"dim": [{"size": "1"}, {"size": "1"}, {"size": "256"}, {"size": "64"}]}}}, "dtype": {"type": "DT_FLOAT"}}}, {"name": "StatefulPartitionedCall/sequential/resnet50/conv4_block5_3_conv/Conv2D_weights", "op": "Const", "attr": {"value": {"tensor": {"dtype": "DT_FLOAT", "tensorShape": {"dim": [{"size": "1"}, {"size": "1"}, {"size": "256"}, {"size": "1024"}]}}}, "dtype": {"type": "DT_FLOAT"}}}, {"name": "StatefulPartitionedCall/sequential/resnet50/conv2_block2_1_conv/Conv2D_bn_offset", "op": "Const", "attr": {"value": {"tensor": {"dtype": "DT_FLOAT", "tensorShape": {"dim": [{"size": "64"}]}}}, "dtype": {"type": "DT_FLOAT"}}}, {"name": "StatefulPartitionedCall/sequential/resnet50/conv2_block2_2_conv/Conv2D_weights", "op": "Const", "attr": {"value": {"tensor": {"dtype": "DT_FLOAT", "tensorShape": {"dim": [{"size": "3"}, {"size": "3"}, {"size": "64"}, {"size": "64"}]}}}, "dtype": {"type": "DT_FLOAT"}}}, {"name": "StatefulPartitionedCall/sequential/resnet50/conv4_block5_3_conv/Conv2D_bn_offset", "op": "Const", "attr": {"value": {"tensor": {"dtype": "DT_FLOAT", "tensorShape": {"dim": [{"size": "1024"}]}}}, "dtype": {"type": "DT_FLOAT"}}}, {"name": "StatefulPartitionedCall/sequential/resnet50/conv2_block2_2_conv/Conv2D_bn_offset", "op": "Const", "attr": {"value": {"tensor": {"dtype": "DT_FLOAT", "tensorShape": {"dim": [{"size": "64"}]}}}, "dtype": {"type": "DT_FLOAT"}}}, {"name": "StatefulPartitionedCall/sequential/resnet50/conv2_block2_3_conv/Conv2D_weights", "op": "Const", "attr": {"value": {"tensor": {"dtype": "DT_FLOAT", "tensorShape": {"dim": [{"size": "1"}, {"size": "1"}, {"size": "64"}, {"size": "256"}]}}}, "dtype": {"type": "DT_FLOAT"}}}, {"name": "StatefulPartitionedCall/sequential/resnet50/conv2_block2_3_conv/Conv2D_bn_offset", "op": "Const", "attr": {"value": {"tensor": {"dtype": "DT_FLOAT", "tensorShape": {"dim": [{"size": "256"}]}}}, "dtype": {"type": "DT_FLOAT"}}}, {"name": "StatefulPartitionedCall/sequential/resnet50/conv2_block3_1_conv/Conv2D_weights", "op": "Const", "attr": {"value": {"tensor": {"dtype": "DT_FLOAT", "tensorShape": {"dim": [{"size": "1"}, {"size": "1"}, {"size": "256"}, {"size": "64"}]}}}, "dtype": {"type": "DT_FLOAT"}}}, {"name": "StatefulPartitionedCall/sequential/resnet50/conv2_block3_1_conv/Conv2D_bn_offset", "op": "Const", "attr": {"value": {"tensor": {"dtype": "DT_FLOAT", "tensorShape": {"dim": [{"size": "64"}]}}}, "dtype": {"type": "DT_FLOAT"}}}, {"name": "StatefulPartitionedCall/sequential/resnet50/conv4_block6_1_conv/Conv2D_weights", "op": "Const", "attr": {"value": {"tensor": {"dtype": "DT_FLOAT", "tensorShape": {"dim": [{"size": "1"}, {"size": "1"}, {"size": "1024"}, {"size": "256"}]}}}, "dtype": {"type": "DT_FLOAT"}}}, {"name": "StatefulPartitionedCall/sequential/resnet50/conv2_block3_2_conv/Conv2D_weights", "op": "Const", "attr": {"value": {"tensor": {"dtype": "DT_FLOAT", "tensorShape": {"dim": [{"size": "3"}, {"size": "3"}, {"size": "64"}, {"size": "64"}]}}}, "dtype": {"type": "DT_FLOAT"}}}, {"name": "StatefulPartitionedCall/sequential/resnet50/conv2_block3_2_conv/Conv2D_bn_offset", "op": "Const", "attr": {"value": {"tensor": {"dtype": "DT_FLOAT", "tensorShape": {"dim": [{"size": "64"}]}}}, "dtype": {"type": "DT_FLOAT"}}}, {"name": "StatefulPartitionedCall/sequential/resnet50/conv4_block6_1_conv/Conv2D_bn_offset", "op": "Const", "attr": {"value": {"tensor": {"dtype": "DT_FLOAT", "tensorShape": {"dim": [{"size": "256"}]}}}, "dtype": {"type": "DT_FLOAT"}}}, {"name": "StatefulPartitionedCall/sequential/resnet50/conv2_block3_3_conv/Conv2D_weights", "op": "Const", "attr": {"value": {"tensor": {"dtype": "DT_FLOAT", "tensorShape": {"dim": [{"size": "1"}, {"size": "1"}, {"size": "64"}, {"size": "256"}]}}}, "dtype": {"type": "DT_FLOAT"}}}, {"name": "StatefulPartitionedCall/sequential/resnet50/conv5_block3_1_conv/Conv2D_weights", "op": "Const", "attr": {"value": {"tensor": {"dtype": "DT_FLOAT", "tensorShape": {"dim": [{"size": "1"}, {"size": "1"}, {"size": "2048"}, {"size": "512"}]}}}, "dtype": {"type": "DT_FLOAT"}}}, {"name": "StatefulPartitionedCall/sequential/resnet50/conv2_block3_3_conv/Conv2D_bn_offset", "op": "Const", "attr": {"value": {"tensor": {"dtype": "DT_FLOAT", "tensorShape": {"dim": [{"size": "256"}]}}}, "dtype": {"type": "DT_FLOAT"}}}, {"name": "StatefulPartitionedCall/sequential/resnet50/conv3_block1_0_conv/Conv2D_weights", "op": "Const", "attr": {"value": {"tensor": {"dtype": "DT_FLOAT", "tensorShape": {"dim": [{"size": "1"}, {"size": "1"}, {"size": "256"}, {"size": "512"}]}}}, "dtype": {"type": "DT_FLOAT"}}}, {"name": "StatefulPartitionedCall/sequential/resnet50/conv3_block1_0_conv/Conv2D_bn_offset", "op": "Const", "attr": {"value": {"tensor": {"dtype": "DT_FLOAT", "tensorShape": {"dim": [{"size": "512"}]}}}, "dtype": {"type": "DT_FLOAT"}}}, {"name": "StatefulPartitionedCall/sequential/resnet50/conv3_block1_1_conv/Conv2D_weights", "op": "Const", "attr": {"value": {"tensor": {"dtype": "DT_FLOAT", "tensorShape": {"dim": [{"size": "1"}, {"size": "1"}, {"size": "256"}, {"size": "128"}]}}}, "dtype": {"type": "DT_FLOAT"}}}, {"name": "StatefulPartitionedCall/sequential/resnet50/conv4_block6_2_conv/Conv2D_weights", "op": "Const", "attr": {"value": {"tensor": {"dtype": "DT_FLOAT", "tensorShape": {"dim": [{"size": "3"}, {"size": "3"}, {"size": "256"}, {"size": "256"}]}}}, "dtype": {"type": "DT_FLOAT"}}}, {"name": "StatefulPartitionedCall/sequential/resnet50/conv3_block1_1_conv/Conv2D_bn_offset", "op": "Const", "attr": {"value": {"tensor": {"dtype": "DT_FLOAT", "tensorShape": {"dim": [{"size": "128"}]}}}, "dtype": {"type": "DT_FLOAT"}}}, {"name": "StatefulPartitionedCall/sequential/resnet50/conv3_block1_2_conv/Conv2D_weights", "op": "Const", "attr": {"value": {"tensor": {"dtype": "DT_FLOAT", "tensorShape": {"dim": [{"size": "3"}, {"size": "3"}, {"size": "128"}, {"size": "128"}]}}}, "dtype": {"type": "DT_FLOAT"}}}, {"name": "StatefulPartitionedCall/sequential/resnet50/conv4_block6_2_conv/Conv2D_bn_offset", "op": "Const", "attr": {"value": {"tensor": {"dtype": "DT_FLOAT", "tensorShape": {"dim": [{"size": "256"}]}}}, "dtype": {"type": "DT_FLOAT"}}}, {"name": "StatefulPartitionedCall/sequential/resnet50/conv3_block1_2_conv/Conv2D_bn_offset", "op": "Const", "attr": {"value": {"tensor": {"dtype": "DT_FLOAT", "tensorShape": {"dim": [{"size": "128"}]}}}, "dtype": {"type": "DT_FLOAT"}}}, {"name": "StatefulPartitionedCall/sequential/resnet50/conv5_block3_1_conv/Conv2D_bn_offset", "op": "Const", "attr": {"value": {"tensor": {"dtype": "DT_FLOAT", "tensorShape": {"dim": [{"size": "512"}]}}}, "dtype": {"type": "DT_FLOAT"}}}, {"name": "StatefulPartitionedCall/sequential/resnet50/conv3_block1_3_conv/Conv2D_weights", "op": "Const", "attr": {"value": {"tensor": {"dtype": "DT_FLOAT", "tensorShape": {"dim": [{"size": "1"}, {"size": "1"}, {"size": "128"}, {"size": "512"}]}}}, "dtype": {"type": "DT_FLOAT"}}}, {"name": "StatefulPartitionedCall/sequential/resnet50/conv3_block1_3_conv/Conv2D_bn_offset", "op": "Const", "attr": {"value": {"tensor": {"dtype": "DT_FLOAT", "tensorShape": {"dim": [{"size": "512"}]}}}, "dtype": {"type": "DT_FLOAT"}}}, {"name": "StatefulPartitionedCall/sequential/resnet50/conv3_block2_1_conv/Conv2D_weights", "op": "Const", "attr": {"value": {"tensor": {"dtype": "DT_FLOAT", "tensorShape": {"dim": [{"size": "1"}, {"size": "1"}, {"size": "512"}, {"size": "128"}]}}}, "dtype": {"type": "DT_FLOAT"}}}, {"name": "StatefulPartitionedCall/sequential/resnet50/conv4_block6_3_conv/Conv2D_weights", "op": "Const", "attr": {"value": {"tensor": {"dtype": "DT_FLOAT", "tensorShape": {"dim": [{"size": "1"}, {"size": "1"}, {"size": "256"}, {"size": "1024"}]}}}, "dtype": {"type": "DT_FLOAT"}}}, {"name": "StatefulPartitionedCall/sequential/resnet50/conv3_block2_1_conv/Conv2D_bn_offset", "op": "Const", "attr": {"value": {"tensor": {"dtype": "DT_FLOAT", "tensorShape": {"dim": [{"size": "128"}]}}}, "dtype": {"type": "DT_FLOAT"}}}, {"name": "StatefulPartitionedCall/sequential/resnet50/conv3_block2_2_conv/Conv2D_weights", "op": "Const", "attr": {"value": {"tensor": {"dtype": "DT_FLOAT", "tensorShape": {"dim": [{"size": "3"}, {"size": "3"}, {"size": "128"}, {"size": "128"}]}}}, "dtype": {"type": "DT_FLOAT"}}}, {"name": "StatefulPartitionedCall/sequential/resnet50/conv4_block6_3_conv/Conv2D_bn_offset", "op": "Const", "attr": {"value": {"tensor": {"dtype": "DT_FLOAT", "tensorShape": {"dim": [{"size": "1024"}]}}}, "dtype": {"type": "DT_FLOAT"}}}, {"name": "StatefulPartitionedCall/sequential/resnet50/conv3_block2_2_conv/Conv2D_bn_offset", "op": "Const", "attr": {"value": {"tensor": {"dtype": "DT_FLOAT", "tensorShape": {"dim": [{"size": "128"}]}}}, "dtype": {"type": "DT_FLOAT"}}}, {"name": "StatefulPartitionedCall/sequential/resnet50/conv3_block2_3_conv/Conv2D_weights", "op": "Const", "attr": {"value": {"tensor": {"dtype": "DT_FLOAT", "tensorShape": {"dim": [{"size": "1"}, {"size": "1"}, {"size": "128"}, {"size": "512"}]}}}, "dtype": {"type": "DT_FLOAT"}}}, {"name": "StatefulPartitionedCall/sequential/resnet50/conv3_block2_3_conv/Conv2D_bn_offset", "op": "Const", "attr": {"value": {"tensor": {"dtype": "DT_FLOAT", "tensorShape": {"dim": [{"size": "512"}]}}}, "dtype": {"type": "DT_FLOAT"}}}, {"name": "StatefulPartitionedCall/sequential/resnet50/conv3_block3_1_conv/Conv2D_weights", "op": "Const", "attr": {"value": {"tensor": {"dtype": "DT_FLOAT", "tensorShape": {"dim": [{"size": "1"}, {"size": "1"}, {"size": "512"}, {"size": "128"}]}}}, "dtype": {"type": "DT_FLOAT"}}}, {"name": "StatefulPartitionedCall/sequential/resnet50/conv3_block3_1_conv/Conv2D_bn_offset", "op": "Const", "attr": {"value": {"tensor": {"dtype": "DT_FLOAT", "tensorShape": {"dim": [{"size": "128"}]}}}, "dtype": {"type": "DT_FLOAT"}}}, {"name": "StatefulPartitionedCall/sequential/resnet50/conv5_block1_0_conv/Conv2D_weights", "op": "Const", "attr": {"value": {"tensor": {"dtype": "DT_FLOAT", "tensorShape": {"dim": [{"size": "1"}, {"size": "1"}, {"size": "1024"}, {"size": "2048"}]}}}, "dtype": {"type": "DT_FLOAT"}}}, {"name": "StatefulPartitionedCall/sequential/resnet50/conv3_block3_2_conv/Conv2D_weights", "op": "Const", "attr": {"value": {"tensor": {"dtype": "DT_FLOAT", "tensorShape": {"dim": [{"size": "3"}, {"size": "3"}, {"size": "128"}, {"size": "128"}]}}}, "dtype": {"type": "DT_FLOAT"}}}, {"name": "StatefulPartitionedCall/sequential/resnet50/conv3_block3_2_conv/Conv2D_bn_offset", "op": "Const", "attr": {"value": {"tensor": {"dtype": "DT_FLOAT", "tensorShape": {"dim": [{"size": "128"}]}}}, "dtype": {"type": "DT_FLOAT"}}}, {"name": "StatefulPartitionedCall/sequential/resnet50/conv5_block1_0_conv/Conv2D_bn_offset", "op": "Const", "attr": {"value": {"tensor": {"dtype": "DT_FLOAT", "tensorShape": {"dim": [{"size": "2048"}]}}}, "dtype": {"type": "DT_FLOAT"}}}, {"name": "StatefulPartitionedCall/sequential/resnet50/conv3_block3_3_conv/Conv2D_weights", "op": "Const", "attr": {"value": {"tensor": {"dtype": "DT_FLOAT", "tensorShape": {"dim": [{"size": "1"}, {"size": "1"}, {"size": "128"}, {"size": "512"}]}}}, "dtype": {"type": "DT_FLOAT"}}}, {"name": "StatefulPartitionedCall/sequential/resnet50/conv3_block3_3_conv/Conv2D_bn_offset", "op": "Const", "attr": {"value": {"tensor": {"dtype": "DT_FLOAT", "tensorShape": {"dim": [{"size": "512"}]}}}, "dtype": {"type": "DT_FLOAT"}}}, {"name": "StatefulPartitionedCall/sequential/resnet50/conv3_block4_1_conv/Conv2D_weights", "op": "Const", "attr": {"value": {"tensor": {"dtype": "DT_FLOAT", "tensorShape": {"dim": [{"size": "1"}, {"size": "1"}, {"size": "512"}, {"size": "128"}]}}}, "dtype": {"type": "DT_FLOAT"}}}, {"name": "StatefulPartitionedCall/sequential/resnet50/conv5_block1_1_conv/Conv2D_weights", "op": "Const", "attr": {"value": {"tensor": {"dtype": "DT_FLOAT", "tensorShape": {"dim": [{"size": "1"}, {"size": "1"}, {"size": "1024"}, {"size": "512"}]}}}, "dtype": {"type": "DT_FLOAT"}}}, {"name": "StatefulPartitionedCall/sequential/resnet50/conv3_block4_1_conv/Conv2D_bn_offset", "op": "Const", "attr": {"value": {"tensor": {"dtype": "DT_FLOAT", "tensorShape": {"dim": [{"size": "128"}]}}}, "dtype": {"type": "DT_FLOAT"}}}, {"name": "StatefulPartitionedCall/sequential/resnet50/conv5_block3_2_conv/Conv2D_weights", "op": "Const", "attr": {"value": {"tensor": {"dtype": "DT_FLOAT", "tensorShape": {"dim": [{"size": "3"}, {"size": "3"}, {"size": "512"}, {"size": "512"}]}}}, "dtype": {"type": "DT_FLOAT"}}}, {"name": "StatefulPartitionedCall/sequential/resnet50/conv3_block4_2_conv/Conv2D_weights", "op": "Const", "attr": {"value": {"tensor": {"dtype": "DT_FLOAT", "tensorShape": {"dim": [{"size": "3"}, {"size": "3"}, {"size": "128"}, {"size": "128"}]}}}, "dtype": {"type": "DT_FLOAT"}}}, {"name": "StatefulPartitionedCall/sequential/resnet50/conv5_block1_1_conv/Conv2D_bn_offset", "op": "Const", "attr": {"value": {"tensor": {"dtype": "DT_FLOAT", "tensorShape": {"dim": [{"size": "512"}]}}}, "dtype": {"type": "DT_FLOAT"}}}, {"name": "StatefulPartitionedCall/sequential/resnet50/conv3_block4_2_conv/Conv2D_bn_offset", "op": "Const", "attr": {"value": {"tensor": {"dtype": "DT_FLOAT", "tensorShape": {"dim": [{"size": "128"}]}}}, "dtype": {"type": "DT_FLOAT"}}}, {"name": "StatefulPartitionedCall/sequential/resnet50/conv3_block4_3_conv/Conv2D_weights", "op": "Const", "attr": {"value": {"tensor": {"dtype": "DT_FLOAT", "tensorShape": {"dim": [{"size": "1"}, {"size": "1"}, {"size": "128"}, {"size": "512"}]}}}, "dtype": {"type": "DT_FLOAT"}}}, {"name": "StatefulPartitionedCall/sequential/resnet50/conv3_block4_3_conv/Conv2D_bn_offset", "op": "Const", "attr": {"value": {"tensor": {"dtype": "DT_FLOAT", "tensorShape": {"dim": [{"size": "512"}]}}}, "dtype": {"type": "DT_FLOAT"}}}, {"name": "StatefulPartitionedCall/sequential/resnet50/conv4_block1_0_conv/Conv2D_weights", "op": "Const", "attr": {"value": {"tensor": {"dtype": "DT_FLOAT", "tensorShape": {"dim": [{"size": "1"}, {"size": "1"}, {"size": "512"}, {"size": "1024"}]}}}, "dtype": {"type": "DT_FLOAT"}}}, {"name": "StatefulPartitionedCall/sequential/resnet50/conv5_block1_2_conv/Conv2D_weights", "op": "Const", "attr": {"value": {"tensor": {"dtype": "DT_FLOAT", "tensorShape": {"dim": [{"size": "3"}, {"size": "3"}, {"size": "512"}, {"size": "512"}]}}}, "dtype": {"type": "DT_FLOAT"}}}, {"name": "StatefulPartitionedCall/sequential/resnet50/conv4_block1_0_conv/Conv2D_bn_offset", "op": "Const", "attr": {"value": {"tensor": {"dtype": "DT_FLOAT", "tensorShape": {"dim": [{"size": "1024"}]}}}, "dtype": {"type": "DT_FLOAT"}}}, {"name": "StatefulPartitionedCall/sequential/resnet50/conv4_block1_1_conv/Conv2D_weights", "op": "Const", "attr": {"value": {"tensor": {"dtype": "DT_FLOAT", "tensorShape": {"dim": [{"size": "1"}, {"size": "1"}, {"size": "512"}, {"size": "256"}]}}}, "dtype": {"type": "DT_FLOAT"}}}, {"name": "StatefulPartitionedCall/sequential/resnet50/conv5_block3_2_conv/Conv2D_bn_offset", "op": "Const", "attr": {"value": {"tensor": {"dtype": "DT_FLOAT", "tensorShape": {"dim": [{"size": "512"}]}}}, "dtype": {"type": "DT_FLOAT"}}}, {"name": "StatefulPartitionedCall/sequential/resnet50/conv4_block1_1_conv/Conv2D_bn_offset", "op": "Const", "attr": {"value": {"tensor": {"dtype": "DT_FLOAT", "tensorShape": {"dim": [{"size": "256"}]}}}, "dtype": {"type": "DT_FLOAT"}}}, {"name": "StatefulPartitionedCall/sequential/resnet50/conv5_block1_2_conv/Conv2D_bn_offset", "op": "Const", "attr": {"value": {"tensor": {"dtype": "DT_FLOAT", "tensorShape": {"dim": [{"size": "512"}]}}}, "dtype": {"type": "DT_FLOAT"}}}, {"name": "StatefulPartitionedCall/sequential/resnet50/conv4_block1_2_conv/Conv2D_weights", "op": "Const", "attr": {"value": {"tensor": {"dtype": "DT_FLOAT", "tensorShape": {"dim": [{"size": "3"}, {"size": "3"}, {"size": "256"}, {"size": "256"}]}}}, "dtype": {"type": "DT_FLOAT"}}}, {"name": "StatefulPartitionedCall/sequential/resnet50/conv4_block1_2_conv/Conv2D_bn_offset", "op": "Const", "attr": {"value": {"tensor": {"dtype": "DT_FLOAT", "tensorShape": {"dim": [{"size": "256"}]}}}, "dtype": {"type": "DT_FLOAT"}}}, {"name": "StatefulPartitionedCall/sequential/resnet50/conv4_block1_3_conv/Conv2D_weights", "op": "Const", "attr": {"value": {"tensor": {"dtype": "DT_FLOAT", "tensorShape": {"dim": [{"size": "1"}, {"size": "1"}, {"size": "256"}, {"size": "1024"}]}}}, "dtype": {"type": "DT_FLOAT"}}}, {"name": "StatefulPartitionedCall/sequential/resnet50/conv5_block1_3_conv/Conv2D_weights", "op": "Const", "attr": {"value": {"tensor": {"dtype": "DT_FLOAT", "tensorShape": {"dim": [{"size": "1"}, {"size": "1"}, {"size": "512"}, {"size": "2048"}]}}}, "dtype": {"type": "DT_FLOAT"}}}, {"name": "StatefulPartitionedCall/sequential/resnet50/conv4_block1_3_conv/Conv2D_bn_offset", "op": "Const", "attr": {"value": {"tensor": {"dtype": "DT_FLOAT", "tensorShape": {"dim": [{"size": "1024"}]}}}, "dtype": {"type": "DT_FLOAT"}}}, {"name": "StatefulPartitionedCall/sequential/resnet50/conv4_block2_1_conv/Conv2D_weights", "op": "Const", "attr": {"value": {"tensor": {"dtype": "DT_FLOAT", "tensorShape": {"dim": [{"size": "1"}, {"size": "1"}, {"size": "1024"}, {"size": "256"}]}}}, "dtype": {"type": "DT_FLOAT"}}}, {"name": "StatefulPartitionedCall/sequential/resnet50/conv4_block2_1_conv/Conv2D_bn_offset", "op": "Const", "attr": {"value": {"tensor": {"dtype": "DT_FLOAT", "tensorShape": {"dim": [{"size": "256"}]}}}, "dtype": {"type": "DT_FLOAT"}}}, {"name": "StatefulPartitionedCall/sequential/resnet50/conv5_block1_3_conv/Conv2D_bn_offset", "op": "Const", "attr": {"value": {"tensor": {"dtype": "DT_FLOAT", "tensorShape": {"dim": [{"size": "2048"}]}}}, "dtype": {"type": "DT_FLOAT"}}}, {"name": "StatefulPartitionedCall/sequential/resnet50/conv4_block2_2_conv/Conv2D_weights", "op": "Const", "attr": {"value": {"tensor": {"dtype": "DT_FLOAT", "tensorShape": {"dim": [{"size": "3"}, {"size": "3"}, {"size": "256"}, {"size": "256"}]}}}, "dtype": {"type": "DT_FLOAT"}}}, {"name": "StatefulPartitionedCall/sequential/resnet50/conv4_block2_2_conv/Conv2D_bn_offset", "op": "Const", "attr": {"value": {"tensor": {"dtype": "DT_FLOAT", "tensorShape": {"dim": [{"size": "256"}]}}}, "dtype": {"type": "DT_FLOAT"}}}, {"name": "StatefulPartitionedCall/sequential/resnet50/conv4_block2_3_conv/Conv2D_weights", "op": "Const", "attr": {"value": {"tensor": {"dtype": "DT_FLOAT", "tensorShape": {"dim": [{"size": "1"}, {"size": "1"}, {"size": "256"}, {"size": "1024"}]}}}, "dtype": {"type": "DT_FLOAT"}}}, {"name": "StatefulPartitionedCall/sequential/resnet50/conv4_block2_3_conv/Conv2D_bn_offset", "op": "Const", "attr": {"value": {"tensor": {"dtype": "DT_FLOAT", "tensorShape": {"dim": [{"size": "1024"}]}}}, "dtype": {"type": "DT_FLOAT"}}}, {"name": "StatefulPartitionedCall/sequential/resnet50/conv4_block3_1_conv/Conv2D_weights", "op": "Const", "attr": {"value": {"tensor": {"dtype": "DT_FLOAT", "tensorShape": {"dim": [{"size": "1"}, {"size": "1"}, {"size": "1024"}, {"size": "256"}]}}}, "dtype": {"type": "DT_FLOAT"}}}, {"name": "StatefulPartitionedCall/sequential/resnet50/conv5_block2_1_conv/Conv2D_weights", "op": "Const", "attr": {"value": {"tensor": {"dtype": "DT_FLOAT", "tensorShape": {"dim": [{"size": "1"}, {"size": "1"}, {"size": "2048"}, {"size": "512"}]}}}, "dtype": {"type": "DT_FLOAT"}}}, {"name": "StatefulPartitionedCall/sequential/resnet50/conv4_block3_1_conv/Conv2D_bn_offset", "op": "Const", "attr": {"value": {"tensor": {"dtype": "DT_FLOAT", "tensorShape": {"dim": [{"size": "256"}]}}}, "dtype": {"type": "DT_FLOAT"}}}, {"name": "StatefulPartitionedCall/sequential/resnet50/conv5_block3_3_conv/Conv2D_weights", "op": "Const", "attr": {"value": {"tensor": {"dtype": "DT_FLOAT", "tensorShape": {"dim": [{"size": "1"}, {"size": "1"}, {"size": "512"}, {"size": "2048"}]}}}, "dtype": {"type": "DT_FLOAT"}}}, {"name": "StatefulPartitionedCall/sequential/resnet50/conv4_block3_2_conv/Conv2D_weights", "op": "Const", "attr": {"value": {"tensor": {"dtype": "DT_FLOAT", "tensorShape": {"dim": [{"size": "3"}, {"size": "3"}, {"size": "256"}, {"size": "256"}]}}}, "dtype": {"type": "DT_FLOAT"}}}, {"name": "StatefulPartitionedCall/sequential/resnet50/conv5_block2_1_conv/Conv2D_bn_offset", "op": "Const", "attr": {"value": {"tensor": {"dtype": "DT_FLOAT", "tensorShape": {"dim": [{"size": "512"}]}}}, "dtype": {"type": "DT_FLOAT"}}}, {"name": "StatefulPartitionedCall/sequential/resnet50/conv4_block3_2_conv/Conv2D_bn_offset", "op": "Const", "attr": {"value": {"tensor": {"dtype": "DT_FLOAT", "tensorShape": {"dim": [{"size": "256"}]}}}, "dtype": {"type": "DT_FLOAT"}}}, {"name": "StatefulPartitionedCall/sequential/resnet50/conv4_block3_3_conv/Conv2D_weights", "op": "Const", "attr": {"value": {"tensor": {"dtype": "DT_FLOAT", "tensorShape": {"dim": [{"size": "1"}, {"size": "1"}, {"size": "256"}, {"size": "1024"}]}}}, "dtype": {"type": "DT_FLOAT"}}}, {"name": "StatefulPartitionedCall/sequential/resnet50/conv4_block3_3_conv/Conv2D_bn_offset", "op": "Const", "attr": {"value": {"tensor": {"dtype": "DT_FLOAT", "tensorShape": {"dim": [{"size": "1024"}]}}}, "dtype": {"type": "DT_FLOAT"}}}, {"name": "StatefulPartitionedCall/sequential/resnet50/conv4_block4_1_conv/Conv2D_weights", "op": "Const", "attr": {"value": {"tensor": {"dtype": "DT_FLOAT", "tensorShape": {"dim": [{"size": "1"}, {"size": "1"}, {"size": "1024"}, {"size": "256"}]}}}, "dtype": {"type": "DT_FLOAT"}}}, {"name": "StatefulPartitionedCall/sequential/resnet50/conv5_block2_2_conv/Conv2D_weights", "op": "Const", "attr": {"value": {"tensor": {"dtype": "DT_FLOAT", "tensorShape": {"dim": [{"size": "3"}, {"size": "3"}, {"size": "512"}, {"size": "512"}]}}}, "dtype": {"type": "DT_FLOAT"}}}, {"name": "StatefulPartitionedCall/sequential/resnet50/conv4_block4_1_conv/Conv2D_bn_offset", "op": "Const", "attr": {"value": {"tensor": {"dtype": "DT_FLOAT", "tensorShape": {"dim": [{"size": "256"}]}}}, "dtype": {"type": "DT_FLOAT"}}}, {"name": "StatefulPartitionedCall/sequential/resnet50/conv5_block3_3_conv/Conv2D_bn_offset", "op": "Const", "attr": {"value": {"tensor": {"dtype": "DT_FLOAT", "tensorShape": {"dim": [{"size": "2048"}]}}}, "dtype": {"type": "DT_FLOAT"}}}, {"name": "StatefulPartitionedCall/sequential/resnet50/conv4_block4_2_conv/Conv2D_weights", "op": "Const", "attr": {"value": {"tensor": {"dtype": "DT_FLOAT", "tensorShape": {"dim": [{"size": "3"}, {"size": "3"}, {"size": "256"}, {"size": "256"}]}}}, "dtype": {"type": "DT_FLOAT"}}}, {"name": "StatefulPartitionedCall/sequential/resnet50/conv5_block2_2_conv/Conv2D_bn_offset", "op": "Const", "attr": {"value": {"tensor": {"dtype": "DT_FLOAT", "tensorShape": {"dim": [{"size": "512"}]}}}, "dtype": {"type": "DT_FLOAT"}}}, {"name": "StatefulPartitionedCall/sequential/resnet50/conv4_block4_2_conv/Conv2D_bn_offset", "op": "Const", "attr": {"value": {"tensor": {"dtype": "DT_FLOAT", "tensorShape": {"dim": [{"size": "256"}]}}}, "dtype": {"type": "DT_FLOAT"}}}, {"name": "StatefulPartitionedCall/sequential/resnet50/conv4_block4_3_conv/Conv2D_weights", "op": "Const", "attr": {"value": {"tensor": {"dtype": "DT_FLOAT", "tensorShape": {"dim": [{"size": "1"}, {"size": "1"}, {"size": "256"}, {"size": "1024"}]}}}, "dtype": {"type": "DT_FLOAT"}}}, {"name": "StatefulPartitionedCall/sequential/resnet50/conv4_block4_3_conv/Conv2D_bn_offset", "op": "Const", "attr": {"value": {"tensor": {"dtype": "DT_FLOAT", "tensorShape": {"dim": [{"size": "1024"}]}}}, "dtype": {"type": "DT_FLOAT"}}}, {"name": "StatefulPartitionedCall/sequential/resnet50/conv4_block5_1_conv/Conv2D_weights", "op": "Const", "attr": {"value": {"tensor": {"dtype": "DT_FLOAT", "tensorShape": {"dim": [{"size": "1"}, {"size": "1"}, {"size": "1024"}, {"size": "256"}]}}}, "dtype": {"type": "DT_FLOAT"}}}, {"name": "StatefulPartitionedCall/sequential/resnet50/conv5_block2_3_conv/Conv2D_weights", "op": "Const", "attr": {"value": {"tensor": {"dtype": "DT_FLOAT", "tensorShape": {"dim": [{"size": "1"}, {"size": "1"}, {"size": "512"}, {"size": "2048"}]}}}, "dtype": {"type": "DT_FLOAT"}}}, {"name": "StatefulPartitionedCall/sequential/resnet50/conv1_pad/Pad", "op": "Pad", "input": ["resnet50_input", "StatefulPartitionedCall/sequential/resnet50/conv1_pad/Pad/paddings"], "attr": {"Tpaddings": {"type": "DT_INT32"}, "T": {"type": "DT_FLOAT"}}}, {"name": "StatefulPartitionedCall/sequential/resnet50/conv1_relu/Relu", "op": "_FusedConv2D", "input": ["StatefulPartitionedCall/sequential/resnet50/conv1_pad/Pad", "StatefulPartitionedCall/sequential/resnet50/conv1_conv/Conv2D_weights", "StatefulPartitionedCall/sequential/resnet50/conv1_conv/Conv2D_bn_offset"], "device": "/device:CPU:0", "attr": {"num_host_args": {"i": "0"}, "_input_shapes": {"list": {"shape": [{"dim": [{"size": "-2"}, {"size": "-6"}, {"size": "-7"}, {"size": "-5"}]}, {"dim": [{"size": "7"}, {"size": "7"}, {"size": "3"}, {"size": "64"}]}]}}, "filter_format": {"s": "SFdJTw=="}, "data_format": {"s": "TkhXQw=="}, "strides": {"list": {"i": ["1", "2", "2", "1"]}}, "num_args": {"i": "1"}, "fused_ops": {"list": {"s": ["Qmlhc0FkZA==", "UmVsdQ=="]}}, "TArgs": {"list": {"type": ["DT_FLOAT"]}}, "padding": {"s": "VkFMSUQ="}, "use_cudnn_on_gpu": {"b": true}, "leakyrelu_alpha": {"f": 0.2}, "epsilon": {"f": 0.0}, "T": {"type": "DT_FLOAT"}, "explicit_paddings": {"list": {}}, "dilations": {"list": {"i": ["1", "1", "1", "1"]}}}}, {"name": "StatefulPartitionedCall/sequential/resnet50/pool1_pad/Pad", "op": "Pad", "input": ["StatefulPartitionedCall/sequential/resnet50/conv1_relu/Relu", "StatefulPartitionedCall/sequential/resnet50/pool1_pad/Pad/paddings"], "attr": {"Tpaddings": {"type": "DT_INT32"}, "T": {"type": "DT_FLOAT"}}}, {"name": "StatefulPartitionedCall/sequential/resnet50/pool1_pool/MaxPool", "op": "MaxPool", "input": ["StatefulPartitionedCall/sequential/resnet50/pool1_pad/Pad"], "attr": {"ksize": {"list": {"i": ["1", "3", "3", "1"]}}, "data_format": {"s": "TkhXQw=="}, "T": {"type": "DT_FLOAT"}, "explicit_paddings": {"list": {}}, "padding": {"s": "VkFMSUQ="}, "strides": {"list": {"i": ["1", "2", "2", "1"]}}}}, {"name": "StatefulPartitionedCall/sequential/resnet50/conv2_block1_0_bn/FusedBatchNormV3", "op": "_FusedConv2D", "input": ["StatefulPartitionedCall/sequential/resnet50/pool1_pool/MaxPool", "StatefulPartitionedCall/sequential/resnet50/conv2_block1_0_conv/Conv2D_weights", "StatefulPartitionedCall/sequential/resnet50/conv2_block1_0_conv/Conv2D_bn_offset"], "device": "/device:CPU:0", "attr": {"num_host_args": {"i": "0"}, "_input_shapes": {"list": {"shape": [{"dim": [{"size": "-2"}, {"size": "-12"}, {"size": "-13"}, {"size": "64"}]}, {"dim": [{"size": "1"}, {"size": "1"}, {"size": "64"}, {"size": "256"}]}]}}, "filter_format": {"s": "SFdJTw=="}, "data_format": {"s": "TkhXQw=="}, "fused_ops": {"list": {"s": ["Qmlhc0FkZA=="]}}, "num_args": {"i": "1"}, "strides": {"list": {"i": ["1", "1", "1", "1"]}}, "TArgs": {"list": {"type": ["DT_FLOAT"]}}, "padding": {"s": "VkFMSUQ="}, "use_cudnn_on_gpu": {"b": true}, "leakyrelu_alpha": {"f": 0.2}, "epsilon": {"f": 0.0}, "T": {"type": "DT_FLOAT"}, "explicit_paddings": {"list": {}}, "dilations": {"list": {"i": ["1", "1", "1", "1"]}}}}, {"name": "StatefulPartitionedCall/sequential/resnet50/conv2_block1_1_relu/Relu", "op": "_FusedConv2D", "input": ["StatefulPartitionedCall/sequential/resnet50/pool1_pool/MaxPool", "StatefulPartitionedCall/sequential/resnet50/conv2_block1_1_conv/Conv2D_weights", "StatefulPartitionedCall/sequential/resnet50/conv2_block1_1_conv/Conv2D_bn_offset"], "device": "/device:CPU:0", "attr": {"num_host_args": {"i": "0"}, "_input_shapes": {"list": {"shape": [{"dim": [{"size": "-2"}, {"size": "-12"}, {"size": "-13"}, {"size": "64"}]}, {"dim": [{"size": "1"}, {"size": "1"}, {"size": "64"}, {"size": "64"}]}]}}, "filter_format": {"s": "SFdJTw=="}, "data_format": {"s": "TkhXQw=="}, "fused_ops": {"list": {"s": ["Qmlhc0FkZA==", "UmVsdQ=="]}}, "num_args": {"i": "1"}, "strides": {"list": {"i": ["1", "1", "1", "1"]}}, "TArgs": {"list": {"type": ["DT_FLOAT"]}}, "padding": {"s": "VkFMSUQ="}, "use_cudnn_on_gpu": {"b": true}, "leakyrelu_alpha": {"f": 0.2}, "epsilon": {"f": 0.0}, "T": {"type": "DT_FLOAT"}, "explicit_paddings": {"list": {}}, "dilations": {"list": {"i": ["1", "1", "1", "1"]}}}}, {"name": "StatefulPartitionedCall/sequential/resnet50/conv2_block1_2_relu/Relu", "op": "_FusedConv2D", "input": ["StatefulPartitionedCall/sequential/resnet50/conv2_block1_1_relu/Relu", "StatefulPartitionedCall/sequential/resnet50/conv2_block1_2_conv/Conv2D_weights", "StatefulPartitionedCall/sequential/resnet50/conv2_block1_2_conv/Conv2D_bn_offset"], "device": "/device:CPU:0", "attr": {"num_host_args": {"i": "0"}, "data_format": {"s": "TkhXQw=="}, "filter_format": {"s": "SFdJTw=="}, "_input_shapes": {"list": {"shape": [{"dim": [{"size": "-2"}, {"size": "-16"}, {"size": "-17"}, {"size": "64"}]}, {"dim": [{"size": "3"}, {"size": "3"}, {"size": "64"}, {"size": "64"}]}]}}, "strides": {"list": {"i": ["1", "1", "1", "1"]}}, "num_args": {"i": "1"}, "fused_ops": {"list": {"s": ["Qmlhc0FkZA==", "UmVsdQ=="]}}, "TArgs": {"list": {"type": ["DT_FLOAT"]}}, "padding": {"s": "U0FNRQ=="}, "use_cudnn_on_gpu": {"b": true}, "leakyrelu_alpha": {"f": 0.2}, "epsilon": {"f": 0.0}, "T": {"type": "DT_FLOAT"}, "explicit_paddings": {"list": {}}, "dilations": {"list": {"i": ["1", "1", "1", "1"]}}}}, {"name": "StatefulPartitionedCall/sequential/resnet50/conv2_block1_3_bn/FusedBatchNormV3", "op": "_FusedConv2D", "input": ["StatefulPartitionedCall/sequential/resnet50/conv2_block1_2_relu/Relu", "StatefulPartitionedCall/sequential/resnet50/conv2_block1_3_conv/Conv2D_weights", "StatefulPartitionedCall/sequential/resnet50/conv2_block1_3_conv/Conv2D_bn_offset"], "device": "/device:CPU:0", "attr": {"num_host_args": {"i": "0"}, "data_format": {"s": "TkhXQw=="}, "filter_format": {"s": "SFdJTw=="}, "_input_shapes": {"list": {"shape": [{"dim": [{"size": "-2"}, {"size": "-16"}, {"size": "-17"}, {"size": "64"}]}, {"dim": [{"size": "1"}, {"size": "1"}, {"size": "64"}, {"size": "256"}]}]}}, "fused_ops": {"list": {"s": ["Qmlhc0FkZA=="]}}, "num_args": {"i": "1"}, "strides": {"list": {"i": ["1", "1", "1", "1"]}}, "TArgs": {"list": {"type": ["DT_FLOAT"]}}, "padding": {"s": "VkFMSUQ="}, "use_cudnn_on_gpu": {"b": true}, "leakyrelu_alpha": {"f": 0.2}, "epsilon": {"f": 0.0}, "T": {"type": "DT_FLOAT"}, "explicit_paddings": {"list": {}}, "dilations": {"list": {"i": ["1", "1", "1", "1"]}}}}, {"name": "StatefulPartitionedCall/sequential/resnet50/conv2_block1_add/add", "op": "AddV2", "input": ["StatefulPartitionedCall/sequential/resnet50/conv2_block1_0_bn/FusedBatchNormV3", "StatefulPartitionedCall/sequential/resnet50/conv2_block1_3_bn/FusedBatchNormV3"], "attr": {"T": {"type": "DT_FLOAT"}}}, {"name": "StatefulPartitionedCall/sequential/resnet50/conv2_block1_out/Relu", "op": "Relu", "input": ["StatefulPartitionedCall/sequential/resnet50/conv2_block1_add/add"], "attr": {"T": {"type": "DT_FLOAT"}}}, {"name": "StatefulPartitionedCall/sequential/resnet50/conv2_block2_1_relu/Relu", "op": "_FusedConv2D", "input": ["StatefulPartitionedCall/sequential/resnet50/conv2_block1_out/Relu", "StatefulPartitionedCall/sequential/resnet50/conv2_block2_1_conv/Conv2D_weights", "StatefulPartitionedCall/sequential/resnet50/conv2_block2_1_conv/Conv2D_bn_offset"], "device": "/device:CPU:0", "attr": {"num_host_args": {"i": "0"}, "data_format": {"s": "TkhXQw=="}, "filter_format": {"s": "SFdJTw=="}, "_input_shapes": {"list": {"shape": [{"dim": [{"size": "-2"}, {"size": "-20"}, {"size": "-21"}, {"size": "256"}]}, {"dim": [{"size": "1"}, {"size": "1"}, {"size": "256"}, {"size": "64"}]}]}}, "strides": {"list": {"i": ["1", "1", "1", "1"]}}, "num_args": {"i": "1"}, "fused_ops": {"list": {"s": ["Qmlhc0FkZA==", "UmVsdQ=="]}}, "TArgs": {"list": {"type": ["DT_FLOAT"]}}, "padding": {"s": "VkFMSUQ="}, "use_cudnn_on_gpu": {"b": true}, "leakyrelu_alpha": {"f": 0.2}, "epsilon": {"f": 0.0}, "T": {"type": "DT_FLOAT"}, "explicit_paddings": {"list": {}}, "dilations": {"list": {"i": ["1", "1", "1", "1"]}}}}, {"name": "StatefulPartitionedCall/sequential/resnet50/conv2_block2_2_relu/Relu", "op": "_FusedConv2D", "input": ["StatefulPartitionedCall/sequential/resnet50/conv2_block2_1_relu/Relu", "StatefulPartitionedCall/sequential/resnet50/conv2_block2_2_conv/Conv2D_weights", "StatefulPartitionedCall/sequential/resnet50/conv2_block2_2_conv/Conv2D_bn_offset"], "device": "/device:CPU:0", "attr": {"num_host_args": {"i": "0"}, "_input_shapes": {"list": {"shape": [{"dim": [{"size": "-2"}, {"size": "-22"}, {"size": "-23"}, {"size": "64"}]}, {"dim": [{"size": "3"}, {"size": "3"}, {"size": "64"}, {"size": "64"}]}]}}, "filter_format": {"s": "SFdJTw=="}, "data_format": {"s": "TkhXQw=="}, "fused_ops": {"list": {"s": ["Qmlhc0FkZA==", "UmVsdQ=="]}}, "num_args": {"i": "1"}, "strides": {"list": {"i": ["1", "1", "1", "1"]}}, "TArgs": {"list": {"type": ["DT_FLOAT"]}}, "padding": {"s": "U0FNRQ=="}, "use_cudnn_on_gpu": {"b": true}, "leakyrelu_alpha": {"f": 0.2}, "epsilon": {"f": 0.0}, "T": {"type": "DT_FLOAT"}, "explicit_paddings": {"list": {}}, "dilations": {"list": {"i": ["1", "1", "1", "1"]}}}}, {"name": "StatefulPartitionedCall/sequential/resnet50/conv2_block2_3_bn/FusedBatchNormV3", "op": "_FusedConv2D", "input": ["StatefulPartitionedCall/sequential/resnet50/conv2_block2_2_relu/Relu", "StatefulPartitionedCall/sequential/resnet50/conv2_block2_3_conv/Conv2D_weights", "StatefulPartitionedCall/sequential/resnet50/conv2_block2_3_conv/Conv2D_bn_offset"], "device": "/device:CPU:0", "attr": {"num_host_args": {"i": "0"}, "data_format": {"s": "TkhXQw=="}, "filter_format": {"s": "SFdJTw=="}, "_input_shapes": {"list": {"shape": [{"dim": [{"size": "-2"}, {"size": "-22"}, {"size": "-23"}, {"size": "64"}]}, {"dim": [{"size": "1"}, {"size": "1"}, {"size": "64"}, {"size": "256"}]}]}}, "fused_ops": {"list": {"s": ["Qmlhc0FkZA=="]}}, "num_args": {"i": "1"}, "strides": {"list": {"i": ["1", "1", "1", "1"]}}, "TArgs": {"list": {"type": ["DT_FLOAT"]}}, "padding": {"s": "VkFMSUQ="}, "use_cudnn_on_gpu": {"b": true}, "leakyrelu_alpha": {"f": 0.2}, "epsilon": {"f": 0.0}, "T": {"type": "DT_FLOAT"}, "explicit_paddings": {"list": {}}, "dilations": {"list": {"i": ["1", "1", "1", "1"]}}}}, {"name": "StatefulPartitionedCall/sequential/resnet50/conv2_block2_add/add", "op": "AddV2", "input": ["StatefulPartitionedCall/sequential/resnet50/conv2_block1_out/Relu", "StatefulPartitionedCall/sequential/resnet50/conv2_block2_3_bn/FusedBatchNormV3"], "attr": {"T": {"type": "DT_FLOAT"}}}, {"name": "StatefulPartitionedCall/sequential/resnet50/conv2_block2_out/Relu", "op": "Relu", "input": ["StatefulPartitionedCall/sequential/resnet50/conv2_block2_add/add"], "attr": {"T": {"type": "DT_FLOAT"}}}, {"name": "StatefulPartitionedCall/sequential/resnet50/conv2_block3_1_relu/Relu", "op": "_FusedConv2D", "input": ["StatefulPartitionedCall/sequential/resnet50/conv2_block2_out/Relu", "StatefulPartitionedCall/sequential/resnet50/conv2_block3_1_conv/Conv2D_weights", "StatefulPartitionedCall/sequential/resnet50/conv2_block3_1_conv/Conv2D_bn_offset"], "device": "/device:CPU:0", "attr": {"num_host_args": {"i": "0"}, "_input_shapes": {"list": {"shape": [{"dim": [{"size": "-2"}, {"size": "-26"}, {"size": "-27"}, {"size": "256"}]}, {"dim": [{"size": "1"}, {"size": "1"}, {"size": "256"}, {"size": "64"}]}]}}, "filter_format": {"s": "SFdJTw=="}, "data_format": {"s": "TkhXQw=="}, "strides": {"list": {"i": ["1", "1", "1", "1"]}}, "num_args": {"i": "1"}, "fused_ops": {"list": {"s": ["Qmlhc0FkZA==", "UmVsdQ=="]}}, "TArgs": {"list": {"type": ["DT_FLOAT"]}}, "padding": {"s": "VkFMSUQ="}, "use_cudnn_on_gpu": {"b": true}, "leakyrelu_alpha": {"f": 0.2}, "epsilon": {"f": 0.0}, "T": {"type": "DT_FLOAT"}, "explicit_paddings": {"list": {}}, "dilations": {"list": {"i": ["1", "1", "1", "1"]}}}}, {"name": "StatefulPartitionedCall/sequential/resnet50/conv2_block3_2_relu/Relu", "op": "_FusedConv2D", "input": ["StatefulPartitionedCall/sequential/resnet50/conv2_block3_1_relu/Relu", "StatefulPartitionedCall/sequential/resnet50/conv2_block3_2_conv/Conv2D_weights", "StatefulPartitionedCall/sequential/resnet50/conv2_block3_2_conv/Conv2D_bn_offset"], "device": "/device:CPU:0", "attr": {"num_host_args": {"i": "0"}, "_input_shapes": {"list": {"shape": [{"dim": [{"size": "-2"}, {"size": "-28"}, {"size": "-29"}, {"size": "64"}]}, {"dim": [{"size": "3"}, {"size": "3"}, {"size": "64"}, {"size": "64"}]}]}}, "filter_format": {"s": "SFdJTw=="}, "data_format": {"s": "TkhXQw=="}, "fused_ops": {"list": {"s": ["Qmlhc0FkZA==", "UmVsdQ=="]}}, "num_args": {"i": "1"}, "strides": {"list": {"i": ["1", "1", "1", "1"]}}, "TArgs": {"list": {"type": ["DT_FLOAT"]}}, "padding": {"s": "U0FNRQ=="}, "use_cudnn_on_gpu": {"b": true}, "leakyrelu_alpha": {"f": 0.2}, "epsilon": {"f": 0.0}, "T": {"type": "DT_FLOAT"}, "explicit_paddings": {"list": {}}, "dilations": {"list": {"i": ["1", "1", "1", "1"]}}}}, {"name": "StatefulPartitionedCall/sequential/resnet50/conv2_block3_3_bn/FusedBatchNormV3", "op": "_FusedConv2D", "input": ["StatefulPartitionedCall/sequential/resnet50/conv2_block3_2_relu/Relu", "StatefulPartitionedCall/sequential/resnet50/conv2_block3_3_conv/Conv2D_weights", "StatefulPartitionedCall/sequential/resnet50/conv2_block3_3_conv/Conv2D_bn_offset"], "device": "/device:CPU:0", "attr": {"num_host_args": {"i": "0"}, "_input_shapes": {"list": {"shape": [{"dim": [{"size": "-2"}, {"size": "-28"}, {"size": "-29"}, {"size": "64"}]}, {"dim": [{"size": "1"}, {"size": "1"}, {"size": "64"}, {"size": "256"}]}]}}, "filter_format": {"s": "SFdJTw=="}, "data_format": {"s": "TkhXQw=="}, "fused_ops": {"list": {"s": ["Qmlhc0FkZA=="]}}, "num_args": {"i": "1"}, "strides": {"list": {"i": ["1", "1", "1", "1"]}}, "TArgs": {"list": {"type": ["DT_FLOAT"]}}, "padding": {"s": "VkFMSUQ="}, "use_cudnn_on_gpu": {"b": true}, "leakyrelu_alpha": {"f": 0.2}, "epsilon": {"f": 0.0}, "T": {"type": "DT_FLOAT"}, "explicit_paddings": {"list": {}}, "dilations": {"list": {"i": ["1", "1", "1", "1"]}}}}, {"name": "StatefulPartitionedCall/sequential/resnet50/conv2_block3_add/add", "op": "AddV2", "input": ["StatefulPartitionedCall/sequential/resnet50/conv2_block2_out/Relu", "StatefulPartitionedCall/sequential/resnet50/conv2_block3_3_bn/FusedBatchNormV3"], "attr": {"T": {"type": "DT_FLOAT"}}}, {"name": "StatefulPartitionedCall/sequential/resnet50/conv2_block3_out/Relu", "op": "Relu", "input": ["StatefulPartitionedCall/sequential/resnet50/conv2_block3_add/add"], "attr": {"T": {"type": "DT_FLOAT"}}}, {"name": "StatefulPartitionedCall/sequential/resnet50/conv3_block1_0_bn/FusedBatchNormV3", "op": "_FusedConv2D", "input": ["StatefulPartitionedCall/sequential/resnet50/conv2_block3_out/Relu", "StatefulPartitionedCall/sequential/resnet50/conv3_block1_0_conv/Conv2D_weights", "StatefulPartitionedCall/sequential/resnet50/conv3_block1_0_conv/Conv2D_bn_offset"], "device": "/device:CPU:0", "attr": {"num_host_args": {"i": "0"}, "_input_shapes": {"list": {"shape": [{"dim": [{"size": "-2"}, {"size": "-32"}, {"size": "-33"}, {"size": "256"}]}, {"dim": [{"size": "1"}, {"size": "1"}, {"size": "256"}, {"size": "512"}]}]}}, "filter_format": {"s": "SFdJTw=="}, "data_format": {"s": "TkhXQw=="}, "strides": {"list": {"i": ["1", "2", "2", "1"]}}, "num_args": {"i": "1"}, "fused_ops": {"list": {"s": ["Qmlhc0FkZA=="]}}, "TArgs": {"list": {"type": ["DT_FLOAT"]}}, "padding": {"s": "VkFMSUQ="}, "use_cudnn_on_gpu": {"b": true}, "leakyrelu_alpha": {"f": 0.2}, "epsilon": {"f": 0.0}, "T": {"type": "DT_FLOAT"}, "explicit_paddings": {"list": {}}, "dilations": {"list": {"i": ["1", "1", "1", "1"]}}}}, {"name": "StatefulPartitionedCall/sequential/resnet50/conv3_block1_1_relu/Relu", "op": "_FusedConv2D", "input": ["StatefulPartitionedCall/sequential/resnet50/conv2_block3_out/Relu", "StatefulPartitionedCall/sequential/resnet50/conv3_block1_1_conv/Conv2D_weights", "StatefulPartitionedCall/sequential/resnet50/conv3_block1_1_conv/Conv2D_bn_offset"], "device": "/device:CPU:0", "attr": {"num_host_args": {"i": "0"}, "data_format": {"s": "TkhXQw=="}, "filter_format": {"s": "SFdJTw=="}, "_input_shapes": {"list": {"shape": [{"dim": [{"size": "-2"}, {"size": "-32"}, {"size": "-33"}, {"size": "256"}]}, {"dim": [{"size": "1"}, {"size": "1"}, {"size": "256"}, {"size": "128"}]}]}}, "strides": {"list": {"i": ["1", "2", "2", "1"]}}, "num_args": {"i": "1"}, "fused_ops": {"list": {"s": ["Qmlhc0FkZA==", "UmVsdQ=="]}}, "TArgs": {"list": {"type": ["DT_FLOAT"]}}, "padding": {"s": "VkFMSUQ="}, "use_cudnn_on_gpu": {"b": true}, "leakyrelu_alpha": {"f": 0.2}, "epsilon": {"f": 0.0}, "T": {"type": "DT_FLOAT"}, "explicit_paddings": {"list": {}}, "dilations": {"list": {"i": ["1", "1", "1", "1"]}}}}, {"name": "StatefulPartitionedCall/sequential/resnet50/conv3_block1_2_relu/Relu", "op": "_FusedConv2D", "input": ["StatefulPartitionedCall/sequential/resnet50/conv3_block1_1_relu/Relu", "StatefulPartitionedCall/sequential/resnet50/conv3_block1_2_conv/Conv2D_weights", "StatefulPartitionedCall/sequential/resnet50/conv3_block1_2_conv/Conv2D_bn_offset"], "device": "/device:CPU:0", "attr": {"num_host_args": {"i": "0"}, "_input_shapes": {"list": {"shape": [{"dim": [{"size": "-2"}, {"size": "-36"}, {"size": "-37"}, {"size": "128"}]}, {"dim": [{"size": "3"}, {"size": "3"}, {"size": "128"}, {"size": "128"}]}]}}, "filter_format": {"s": "SFdJTw=="}, "data_format": {"s": "TkhXQw=="}, "fused_ops": {"list": {"s": ["Qmlhc0FkZA==", "UmVsdQ=="]}}, "num_args": {"i": "1"}, "strides": {"list": {"i": ["1", "1", "1", "1"]}}, "TArgs": {"list": {"type": ["DT_FLOAT"]}}, "padding": {"s": "U0FNRQ=="}, "use_cudnn_on_gpu": {"b": true}, "leakyrelu_alpha": {"f": 0.2}, "epsilon": {"f": 0.0}, "T": {"type": "DT_FLOAT"}, "explicit_paddings": {"list": {}}, "dilations": {"list": {"i": ["1", "1", "1", "1"]}}}}, {"name": "StatefulPartitionedCall/sequential/resnet50/conv3_block1_3_bn/FusedBatchNormV3", "op": "_FusedConv2D", "input": ["StatefulPartitionedCall/sequential/resnet50/conv3_block1_2_relu/Relu", "StatefulPartitionedCall/sequential/resnet50/conv3_block1_3_conv/Conv2D_weights", "StatefulPartitionedCall/sequential/resnet50/conv3_block1_3_conv/Conv2D_bn_offset"], "device": "/device:CPU:0", "attr": {"num_host_args": {"i": "0"}, "_input_shapes": {"list": {"shape": [{"dim": [{"size": "-2"}, {"size": "-36"}, {"size": "-37"}, {"size": "128"}]}, {"dim": [{"size": "1"}, {"size": "1"}, {"size": "128"}, {"size": "512"}]}]}}, "filter_format": {"s": "SFdJTw=="}, "data_format": {"s": "TkhXQw=="}, "strides": {"list": {"i": ["1", "1", "1", "1"]}}, "num_args": {"i": "1"}, "fused_ops": {"list": {"s": ["Qmlhc0FkZA=="]}}, "TArgs": {"list": {"type": ["DT_FLOAT"]}}, "padding": {"s": "VkFMSUQ="}, "use_cudnn_on_gpu": {"b": true}, "leakyrelu_alpha": {"f": 0.2}, "epsilon": {"f": 0.0}, "T": {"type": "DT_FLOAT"}, "explicit_paddings": {"list": {}}, "dilations": {"list": {"i": ["1", "1", "1", "1"]}}}}, {"name": "StatefulPartitionedCall/sequential/resnet50/conv3_block1_add/add", "op": "AddV2", "input": ["StatefulPartitionedCall/sequential/resnet50/conv3_block1_0_bn/FusedBatchNormV3", "StatefulPartitionedCall/sequential/resnet50/conv3_block1_3_bn/FusedBatchNormV3"], "attr": {"T": {"type": "DT_FLOAT"}}}, {"name": "StatefulPartitionedCall/sequential/resnet50/conv3_block1_out/Relu", "op": "Relu", "input": ["StatefulPartitionedCall/sequential/resnet50/conv3_block1_add/add"], "attr": {"T": {"type": "DT_FLOAT"}}}, {"name": "StatefulPartitionedCall/sequential/resnet50/conv3_block2_1_relu/Relu", "op": "_FusedConv2D", "input": ["StatefulPartitionedCall/sequential/resnet50/conv3_block1_out/Relu", "StatefulPartitionedCall/sequential/resnet50/conv3_block2_1_conv/Conv2D_weights", "StatefulPartitionedCall/sequential/resnet50/conv3_block2_1_conv/Conv2D_bn_offset"], "device": "/device:CPU:0", "attr": {"num_host_args": {"i": "0"}, "_input_shapes": {"list": {"shape": [{"dim": [{"size": "-2"}, {"size": "-40"}, {"size": "-41"}, {"size": "512"}]}, {"dim": [{"size": "1"}, {"size": "1"}, {"size": "512"}, {"size": "128"}]}]}}, "filter_format": {"s": "SFdJTw=="}, "data_format": {"s": "TkhXQw=="}, "fused_ops": {"list": {"s": ["Qmlhc0FkZA==", "UmVsdQ=="]}}, "num_args": {"i": "1"}, "strides": {"list": {"i": ["1", "1", "1", "1"]}}, "TArgs": {"list": {"type": ["DT_FLOAT"]}}, "padding": {"s": "VkFMSUQ="}, "use_cudnn_on_gpu": {"b": true}, "leakyrelu_alpha": {"f": 0.2}, "epsilon": {"f": 0.0}, "T": {"type": "DT_FLOAT"}, "explicit_paddings": {"list": {}}, "dilations": {"list": {"i": ["1", "1", "1", "1"]}}}}, {"name": "StatefulPartitionedCall/sequential/resnet50/conv3_block2_2_relu/Relu", "op": "_FusedConv2D", "input": ["StatefulPartitionedCall/sequential/resnet50/conv3_block2_1_relu/Relu", "StatefulPartitionedCall/sequential/resnet50/conv3_block2_2_conv/Conv2D_weights", "StatefulPartitionedCall/sequential/resnet50/conv3_block2_2_conv/Conv2D_bn_offset"], "device": "/device:CPU:0", "attr": {"num_host_args": {"i": "0"}, "_input_shapes": {"list": {"shape": [{"dim": [{"size": "-2"}, {"size": "-42"}, {"size": "-43"}, {"size": "128"}]}, {"dim": [{"size": "3"}, {"size": "3"}, {"size": "128"}, {"size": "128"}]}]}}, "filter_format": {"s": "SFdJTw=="}, "data_format": {"s": "TkhXQw=="}, "fused_ops": {"list": {"s": ["Qmlhc0FkZA==", "UmVsdQ=="]}}, "num_args": {"i": "1"}, "strides": {"list": {"i": ["1", "1", "1", "1"]}}, "TArgs": {"list": {"type": ["DT_FLOAT"]}}, "padding": {"s": "U0FNRQ=="}, "use_cudnn_on_gpu": {"b": true}, "leakyrelu_alpha": {"f": 0.2}, "epsilon": {"f": 0.0}, "T": {"type": "DT_FLOAT"}, "explicit_paddings": {"list": {}}, "dilations": {"list": {"i": ["1", "1", "1", "1"]}}}}, {"name": "StatefulPartitionedCall/sequential/resnet50/conv3_block2_3_bn/FusedBatchNormV3", "op": "_FusedConv2D", "input": ["StatefulPartitionedCall/sequential/resnet50/conv3_block2_2_relu/Relu", "StatefulPartitionedCall/sequential/resnet50/conv3_block2_3_conv/Conv2D_weights", "StatefulPartitionedCall/sequential/resnet50/conv3_block2_3_conv/Conv2D_bn_offset"], "device": "/device:CPU:0", "attr": {"num_host_args": {"i": "0"}, "data_format": {"s": "TkhXQw=="}, "filter_format": {"s": "SFdJTw=="}, "_input_shapes": {"list": {"shape": [{"dim": [{"size": "-2"}, {"size": "-42"}, {"size": "-43"}, {"size": "128"}]}, {"dim": [{"size": "1"}, {"size": "1"}, {"size": "128"}, {"size": "512"}]}]}}, "strides": {"list": {"i": ["1", "1", "1", "1"]}}, "num_args": {"i": "1"}, "fused_ops": {"list": {"s": ["Qmlhc0FkZA=="]}}, "TArgs": {"list": {"type": ["DT_FLOAT"]}}, "padding": {"s": "VkFMSUQ="}, "use_cudnn_on_gpu": {"b": true}, "leakyrelu_alpha": {"f": 0.2}, "epsilon": {"f": 0.0}, "T": {"type": "DT_FLOAT"}, "explicit_paddings": {"list": {}}, "dilations": {"list": {"i": ["1", "1", "1", "1"]}}}}, {"name": "StatefulPartitionedCall/sequential/resnet50/conv3_block2_add/add", "op": "AddV2", "input": ["StatefulPartitionedCall/sequential/resnet50/conv3_block1_out/Relu", "StatefulPartitionedCall/sequential/resnet50/conv3_block2_3_bn/FusedBatchNormV3"], "attr": {"T": {"type": "DT_FLOAT"}}}, {"name": "StatefulPartitionedCall/sequential/resnet50/conv3_block2_out/Relu", "op": "Relu", "input": ["StatefulPartitionedCall/sequential/resnet50/conv3_block2_add/add"], "attr": {"T": {"type": "DT_FLOAT"}}}, {"name": "StatefulPartitionedCall/sequential/resnet50/conv3_block3_1_relu/Relu", "op": "_FusedConv2D", "input": ["StatefulPartitionedCall/sequential/resnet50/conv3_block2_out/Relu", "StatefulPartitionedCall/sequential/resnet50/conv3_block3_1_conv/Conv2D_weights", "StatefulPartitionedCall/sequential/resnet50/conv3_block3_1_conv/Conv2D_bn_offset"], "device": "/device:CPU:0", "attr": {"num_host_args": {"i": "0"}, "data_format": {"s": "TkhXQw=="}, "filter_format": {"s": "SFdJTw=="}, "_input_shapes": {"list": {"shape": [{"dim": [{"size": "-2"}, {"size": "-46"}, {"size": "-47"}, {"size": "512"}]}, {"dim": [{"size": "1"}, {"size": "1"}, {"size": "512"}, {"size": "128"}]}]}}, "fused_ops": {"list": {"s": ["Qmlhc0FkZA==", "UmVsdQ=="]}}, "num_args": {"i": "1"}, "strides": {"list": {"i": ["1", "1", "1", "1"]}}, "TArgs": {"list": {"type": ["DT_FLOAT"]}}, "padding": {"s": "VkFMSUQ="}, "use_cudnn_on_gpu": {"b": true}, "leakyrelu_alpha": {"f": 0.2}, "epsilon": {"f": 0.0}, "T": {"type": "DT_FLOAT"}, "explicit_paddings": {"list": {}}, "dilations": {"list": {"i": ["1", "1", "1", "1"]}}}}, {"name": "StatefulPartitionedCall/sequential/resnet50/conv3_block3_2_relu/Relu", "op": "_FusedConv2D", "input": ["StatefulPartitionedCall/sequential/resnet50/conv3_block3_1_relu/Relu", "StatefulPartitionedCall/sequential/resnet50/conv3_block3_2_conv/Conv2D_weights", "StatefulPartitionedCall/sequential/resnet50/conv3_block3_2_conv/Conv2D_bn_offset"], "device": "/device:CPU:0", "attr": {"num_host_args": {"i": "0"}, "data_format": {"s": "TkhXQw=="}, "filter_format": {"s": "SFdJTw=="}, "_input_shapes": {"list": {"shape": [{"dim": [{"size": "-2"}, {"size": "-48"}, {"size": "-49"}, {"size": "128"}]}, {"dim": [{"size": "3"}, {"size": "3"}, {"size": "128"}, {"size": "128"}]}]}}, "strides": {"list": {"i": ["1", "1", "1", "1"]}}, "num_args": {"i": "1"}, "fused_ops": {"list": {"s": ["Qmlhc0FkZA==", "UmVsdQ=="]}}, "TArgs": {"list": {"type": ["DT_FLOAT"]}}, "padding": {"s": "U0FNRQ=="}, "use_cudnn_on_gpu": {"b": true}, "leakyrelu_alpha": {"f": 0.2}, "epsilon": {"f": 0.0}, "T": {"type": "DT_FLOAT"}, "explicit_paddings": {"list": {}}, "dilations": {"list": {"i": ["1", "1", "1", "1"]}}}}, {"name": "StatefulPartitionedCall/sequential/resnet50/conv3_block3_3_bn/FusedBatchNormV3", "op": "_FusedConv2D", "input": ["StatefulPartitionedCall/sequential/resnet50/conv3_block3_2_relu/Relu", "StatefulPartitionedCall/sequential/resnet50/conv3_block3_3_conv/Conv2D_weights", "StatefulPartitionedCall/sequential/resnet50/conv3_block3_3_conv/Conv2D_bn_offset"], "device": "/device:CPU:0", "attr": {"num_host_args": {"i": "0"}, "data_format": {"s": "TkhXQw=="}, "filter_format": {"s": "SFdJTw=="}, "_input_shapes": {"list": {"shape": [{"dim": [{"size": "-2"}, {"size": "-48"}, {"size": "-49"}, {"size": "128"}]}, {"dim": [{"size": "1"}, {"size": "1"}, {"size": "128"}, {"size": "512"}]}]}}, "strides": {"list": {"i": ["1", "1", "1", "1"]}}, "num_args": {"i": "1"}, "fused_ops": {"list": {"s": ["Qmlhc0FkZA=="]}}, "TArgs": {"list": {"type": ["DT_FLOAT"]}}, "padding": {"s": "VkFMSUQ="}, "use_cudnn_on_gpu": {"b": true}, "leakyrelu_alpha": {"f": 0.2}, "epsilon": {"f": 0.0}, "T": {"type": "DT_FLOAT"}, "explicit_paddings": {"list": {}}, "dilations": {"list": {"i": ["1", "1", "1", "1"]}}}}, {"name": "StatefulPartitionedCall/sequential/resnet50/conv3_block3_add/add", "op": "AddV2", "input": ["StatefulPartitionedCall/sequential/resnet50/conv3_block2_out/Relu", "StatefulPartitionedCall/sequential/resnet50/conv3_block3_3_bn/FusedBatchNormV3"], "attr": {"T": {"type": "DT_FLOAT"}}}, {"name": "StatefulPartitionedCall/sequential/resnet50/conv3_block3_out/Relu", "op": "Relu", "input": ["StatefulPartitionedCall/sequential/resnet50/conv3_block3_add/add"], "attr": {"T": {"type": "DT_FLOAT"}}}, {"name": "StatefulPartitionedCall/sequential/resnet50/conv3_block4_1_relu/Relu", "op": "_FusedConv2D", "input": ["StatefulPartitionedCall/sequential/resnet50/conv3_block3_out/Relu", "StatefulPartitionedCall/sequential/resnet50/conv3_block4_1_conv/Conv2D_weights", "StatefulPartitionedCall/sequential/resnet50/conv3_block4_1_conv/Conv2D_bn_offset"], "device": "/device:CPU:0", "attr": {"num_host_args": {"i": "0"}, "_input_shapes": {"list": {"shape": [{"dim": [{"size": "-2"}, {"size": "-52"}, {"size": "-53"}, {"size": "512"}]}, {"dim": [{"size": "1"}, {"size": "1"}, {"size": "512"}, {"size": "128"}]}]}}, "filter_format": {"s": "SFdJTw=="}, "data_format": {"s": "TkhXQw=="}, "fused_ops": {"list": {"s": ["Qmlhc0FkZA==", "UmVsdQ=="]}}, "num_args": {"i": "1"}, "strides": {"list": {"i": ["1", "1", "1", "1"]}}, "TArgs": {"list": {"type": ["DT_FLOAT"]}}, "padding": {"s": "VkFMSUQ="}, "use_cudnn_on_gpu": {"b": true}, "leakyrelu_alpha": {"f": 0.2}, "epsilon": {"f": 0.0}, "T": {"type": "DT_FLOAT"}, "explicit_paddings": {"list": {}}, "dilations": {"list": {"i": ["1", "1", "1", "1"]}}}}, {"name": "StatefulPartitionedCall/sequential/resnet50/conv3_block4_2_relu/Relu", "op": "_FusedConv2D", "input": ["StatefulPartitionedCall/sequential/resnet50/conv3_block4_1_relu/Relu", "StatefulPartitionedCall/sequential/resnet50/conv3_block4_2_conv/Conv2D_weights", "StatefulPartitionedCall/sequential/resnet50/conv3_block4_2_conv/Conv2D_bn_offset"], "device": "/device:CPU:0", "attr": {"num_host_args": {"i": "0"}, "data_format": {"s": "TkhXQw=="}, "filter_format": {"s": "SFdJTw=="}, "_input_shapes": {"list": {"shape": [{"dim": [{"size": "-2"}, {"size": "-54"}, {"size": "-55"}, {"size": "128"}]}, {"dim": [{"size": "3"}, {"size": "3"}, {"size": "128"}, {"size": "128"}]}]}}, "strides": {"list": {"i": ["1", "1", "1", "1"]}}, "num_args": {"i": "1"}, "fused_ops": {"list": {"s": ["Qmlhc0FkZA==", "UmVsdQ=="]}}, "TArgs": {"list": {"type": ["DT_FLOAT"]}}, "padding": {"s": "U0FNRQ=="}, "use_cudnn_on_gpu": {"b": true}, "leakyrelu_alpha": {"f": 0.2}, "epsilon": {"f": 0.0}, "T": {"type": "DT_FLOAT"}, "explicit_paddings": {"list": {}}, "dilations": {"list": {"i": ["1", "1", "1", "1"]}}}}, {"name": "StatefulPartitionedCall/sequential/resnet50/conv3_block4_3_bn/FusedBatchNormV3", "op": "_FusedConv2D", "input": ["StatefulPartitionedCall/sequential/resnet50/conv3_block4_2_relu/Relu", "StatefulPartitionedCall/sequential/resnet50/conv3_block4_3_conv/Conv2D_weights", "StatefulPartitionedCall/sequential/resnet50/conv3_block4_3_conv/Conv2D_bn_offset"], "device": "/device:CPU:0", "attr": {"num_host_args": {"i": "0"}, "_input_shapes": {"list": {"shape": [{"dim": [{"size": "-2"}, {"size": "-54"}, {"size": "-55"}, {"size": "128"}]}, {"dim": [{"size": "1"}, {"size": "1"}, {"size": "128"}, {"size": "512"}]}]}}, "filter_format": {"s": "SFdJTw=="}, "data_format": {"s": "TkhXQw=="}, "fused_ops": {"list": {"s": ["Qmlhc0FkZA=="]}}, "num_args": {"i": "1"}, "strides": {"list": {"i": ["1", "1", "1", "1"]}}, "TArgs": {"list": {"type": ["DT_FLOAT"]}}, "padding": {"s": "VkFMSUQ="}, "use_cudnn_on_gpu": {"b": true}, "leakyrelu_alpha": {"f": 0.2}, "epsilon": {"f": 0.0}, "T": {"type": "DT_FLOAT"}, "explicit_paddings": {"list": {}}, "dilations": {"list": {"i": ["1", "1", "1", "1"]}}}}, {"name": "StatefulPartitionedCall/sequential/resnet50/conv3_block4_add/add", "op": "AddV2", "input": ["StatefulPartitionedCall/sequential/resnet50/conv3_block3_out/Relu", "StatefulPartitionedCall/sequential/resnet50/conv3_block4_3_bn/FusedBatchNormV3"], "attr": {"T": {"type": "DT_FLOAT"}}}, {"name": "StatefulPartitionedCall/sequential/resnet50/conv3_block4_out/Relu", "op": "Relu", "input": ["StatefulPartitionedCall/sequential/resnet50/conv3_block4_add/add"], "attr": {"T": {"type": "DT_FLOAT"}}}, {"name": "StatefulPartitionedCall/sequential/resnet50/conv4_block1_0_bn/FusedBatchNormV3", "op": "_FusedConv2D", "input": ["StatefulPartitionedCall/sequential/resnet50/conv3_block4_out/Relu", "StatefulPartitionedCall/sequential/resnet50/conv4_block1_0_conv/Conv2D_weights", "StatefulPartitionedCall/sequential/resnet50/conv4_block1_0_conv/Conv2D_bn_offset"], "device": "/device:CPU:0", "attr": {"num_host_args": {"i": "0"}, "data_format": {"s": "TkhXQw=="}, "filter_format": {"s": "SFdJTw=="}, "_input_shapes": {"list": {"shape": [{"dim": [{"size": "-2"}, {"size": "-58"}, {"size": "-59"}, {"size": "512"}]}, {"dim": [{"size": "1"}, {"size": "1"}, {"size": "512"}, {"size": "1024"}]}]}}, "strides": {"list": {"i": ["1", "2", "2", "1"]}}, "num_args": {"i": "1"}, "fused_ops": {"list": {"s": ["Qmlhc0FkZA=="]}}, "TArgs": {"list": {"type": ["DT_FLOAT"]}}, "padding": {"s": "VkFMSUQ="}, "use_cudnn_on_gpu": {"b": true}, "leakyrelu_alpha": {"f": 0.2}, "epsilon": {"f": 0.0}, "T": {"type": "DT_FLOAT"}, "explicit_paddings": {"list": {}}, "dilations": {"list": {"i": ["1", "1", "1", "1"]}}}}, {"name": "StatefulPartitionedCall/sequential/resnet50/conv4_block1_1_relu/Relu", "op": "_FusedConv2D", "input": ["StatefulPartitionedCall/sequential/resnet50/conv3_block4_out/Relu", "StatefulPartitionedCall/sequential/resnet50/conv4_block1_1_conv/Conv2D_weights", "StatefulPartitionedCall/sequential/resnet50/conv4_block1_1_conv/Conv2D_bn_offset"], "device": "/device:CPU:0", "attr": {"num_host_args": {"i": "0"}, "_input_shapes": {"list": {"shape": [{"dim": [{"size": "-2"}, {"size": "-58"}, {"size": "-59"}, {"size": "512"}]}, {"dim": [{"size": "1"}, {"size": "1"}, {"size": "512"}, {"size": "256"}]}]}}, "filter_format": {"s": "SFdJTw=="}, "data_format": {"s": "TkhXQw=="}, "strides": {"list": {"i": ["1", "2", "2", "1"]}}, "num_args": {"i": "1"}, "fused_ops": {"list": {"s": ["Qmlhc0FkZA==", "UmVsdQ=="]}}, "TArgs": {"list": {"type": ["DT_FLOAT"]}}, "padding": {"s": "VkFMSUQ="}, "use_cudnn_on_gpu": {"b": true}, "leakyrelu_alpha": {"f": 0.2}, "epsilon": {"f": 0.0}, "T": {"type": "DT_FLOAT"}, "explicit_paddings": {"list": {}}, "dilations": {"list": {"i": ["1", "1", "1", "1"]}}}}, {"name": "StatefulPartitionedCall/sequential/resnet50/conv4_block1_2_relu/Relu", "op": "_FusedConv2D", "input": ["StatefulPartitionedCall/sequential/resnet50/conv4_block1_1_relu/Relu", "StatefulPartitionedCall/sequential/resnet50/conv4_block1_2_conv/Conv2D_weights", "StatefulPartitionedCall/sequential/resnet50/conv4_block1_2_conv/Conv2D_bn_offset"], "device": "/device:CPU:0", "attr": {"num_host_args": {"i": "0"}, "data_format": {"s": "TkhXQw=="}, "filter_format": {"s": "SFdJTw=="}, "_input_shapes": {"list": {"shape": [{"dim": [{"size": "-2"}, {"size": "-62"}, {"size": "-63"}, {"size": "256"}]}, {"dim": [{"size": "3"}, {"size": "3"}, {"size": "256"}, {"size": "256"}]}]}}, "fused_ops": {"list": {"s": ["Qmlhc0FkZA==", "UmVsdQ=="]}}, "num_args": {"i": "1"}, "strides": {"list": {"i": ["1", "1", "1", "1"]}}, "TArgs": {"list": {"type": ["DT_FLOAT"]}}, "padding": {"s": "U0FNRQ=="}, "use_cudnn_on_gpu": {"b": true}, "leakyrelu_alpha": {"f": 0.2}, "epsilon": {"f": 0.0}, "T": {"type": "DT_FLOAT"}, "explicit_paddings": {"list": {}}, "dilations": {"list": {"i": ["1", "1", "1", "1"]}}}}, {"name": "StatefulPartitionedCall/sequential/resnet50/conv4_block1_3_bn/FusedBatchNormV3", "op": "_FusedConv2D", "input": ["StatefulPartitionedCall/sequential/resnet50/conv4_block1_2_relu/Relu", "StatefulPartitionedCall/sequential/resnet50/conv4_block1_3_conv/Conv2D_weights", "StatefulPartitionedCall/sequential/resnet50/conv4_block1_3_conv/Conv2D_bn_offset"], "device": "/device:CPU:0", "attr": {"num_host_args": {"i": "0"}, "data_format": {"s": "TkhXQw=="}, "filter_format": {"s": "SFdJTw=="}, "_input_shapes": {"list": {"shape": [{"dim": [{"size": "-2"}, {"size": "-62"}, {"size": "-63"}, {"size": "256"}]}, {"dim": [{"size": "1"}, {"size": "1"}, {"size": "256"}, {"size": "1024"}]}]}}, "strides": {"list": {"i": ["1", "1", "1", "1"]}}, "num_args": {"i": "1"}, "fused_ops": {"list": {"s": ["Qmlhc0FkZA=="]}}, "TArgs": {"list": {"type": ["DT_FLOAT"]}}, "padding": {"s": "VkFMSUQ="}, "use_cudnn_on_gpu": {"b": true}, "leakyrelu_alpha": {"f": 0.2}, "epsilon": {"f": 0.0}, "T": {"type": "DT_FLOAT"}, "explicit_paddings": {"list": {}}, "dilations": {"list": {"i": ["1", "1", "1", "1"]}}}}, {"name": "StatefulPartitionedCall/sequential/resnet50/conv4_block1_add/add", "op": "AddV2", "input": ["StatefulPartitionedCall/sequential/resnet50/conv4_block1_0_bn/FusedBatchNormV3", "StatefulPartitionedCall/sequential/resnet50/conv4_block1_3_bn/FusedBatchNormV3"], "attr": {"T": {"type": "DT_FLOAT"}}}, {"name": "StatefulPartitionedCall/sequential/resnet50/conv4_block1_out/Relu", "op": "Relu", "input": ["StatefulPartitionedCall/sequential/resnet50/conv4_block1_add/add"], "attr": {"T": {"type": "DT_FLOAT"}}}, {"name": "StatefulPartitionedCall/sequential/resnet50/conv4_block2_1_relu/Relu", "op": "_FusedConv2D", "input": ["StatefulPartitionedCall/sequential/resnet50/conv4_block1_out/Relu", "StatefulPartitionedCall/sequential/resnet50/conv4_block2_1_conv/Conv2D_weights", "StatefulPartitionedCall/sequential/resnet50/conv4_block2_1_conv/Conv2D_bn_offset"], "device": "/device:CPU:0", "attr": {"num_host_args": {"i": "0"}, "data_format": {"s": "TkhXQw=="}, "filter_format": {"s": "SFdJTw=="}, "_input_shapes": {"list": {"shape": [{"dim": [{"size": "-2"}, {"size": "-66"}, {"size": "-67"}, {"size": "1024"}]}, {"dim": [{"size": "1"}, {"size": "1"}, {"size": "1024"}, {"size": "256"}]}]}}, "fused_ops": {"list": {"s": ["Qmlhc0FkZA==", "UmVsdQ=="]}}, "num_args": {"i": "1"}, "strides": {"list": {"i": ["1", "1", "1", "1"]}}, "TArgs": {"list": {"type": ["DT_FLOAT"]}}, "padding": {"s": "VkFMSUQ="}, "use_cudnn_on_gpu": {"b": true}, "leakyrelu_alpha": {"f": 0.2}, "epsilon": {"f": 0.0}, "T": {"type": "DT_FLOAT"}, "explicit_paddings": {"list": {}}, "dilations": {"list": {"i": ["1", "1", "1", "1"]}}}}, {"name": "StatefulPartitionedCall/sequential/resnet50/conv4_block2_2_relu/Relu", "op": "_FusedConv2D", "input": ["StatefulPartitionedCall/sequential/resnet50/conv4_block2_1_relu/Relu", "StatefulPartitionedCall/sequential/resnet50/conv4_block2_2_conv/Conv2D_weights", "StatefulPartitionedCall/sequential/resnet50/conv4_block2_2_conv/Conv2D_bn_offset"], "device": "/device:CPU:0", "attr": {"num_host_args": {"i": "0"}, "data_format": {"s": "TkhXQw=="}, "filter_format": {"s": "SFdJTw=="}, "_input_shapes": {"list": {"shape": [{"dim": [{"size": "-2"}, {"size": "-68"}, {"size": "-69"}, {"size": "256"}]}, {"dim": [{"size": "3"}, {"size": "3"}, {"size": "256"}, {"size": "256"}]}]}}, "fused_ops": {"list": {"s": ["Qmlhc0FkZA==", "UmVsdQ=="]}}, "num_args": {"i": "1"}, "strides": {"list": {"i": ["1", "1", "1", "1"]}}, "TArgs": {"list": {"type": ["DT_FLOAT"]}}, "padding": {"s": "U0FNRQ=="}, "use_cudnn_on_gpu": {"b": true}, "leakyrelu_alpha": {"f": 0.2}, "epsilon": {"f": 0.0}, "T": {"type": "DT_FLOAT"}, "explicit_paddings": {"list": {}}, "dilations": {"list": {"i": ["1", "1", "1", "1"]}}}}, {"name": "StatefulPartitionedCall/sequential/resnet50/conv4_block2_3_bn/FusedBatchNormV3", "op": "_FusedConv2D", "input": ["StatefulPartitionedCall/sequential/resnet50/conv4_block2_2_relu/Relu", "StatefulPartitionedCall/sequential/resnet50/conv4_block2_3_conv/Conv2D_weights", "StatefulPartitionedCall/sequential/resnet50/conv4_block2_3_conv/Conv2D_bn_offset"], "device": "/device:CPU:0", "attr": {"num_host_args": {"i": "0"}, "_input_shapes": {"list": {"shape": [{"dim": [{"size": "-2"}, {"size": "-68"}, {"size": "-69"}, {"size": "256"}]}, {"dim": [{"size": "1"}, {"size": "1"}, {"size": "256"}, {"size": "1024"}]}]}}, "filter_format": {"s": "SFdJTw=="}, "data_format": {"s": "TkhXQw=="}, "strides": {"list": {"i": ["1", "1", "1", "1"]}}, "num_args": {"i": "1"}, "fused_ops": {"list": {"s": ["Qmlhc0FkZA=="]}}, "TArgs": {"list": {"type": ["DT_FLOAT"]}}, "padding": {"s": "VkFMSUQ="}, "use_cudnn_on_gpu": {"b": true}, "leakyrelu_alpha": {"f": 0.2}, "epsilon": {"f": 0.0}, "T": {"type": "DT_FLOAT"}, "explicit_paddings": {"list": {}}, "dilations": {"list": {"i": ["1", "1", "1", "1"]}}}}, {"name": "StatefulPartitionedCall/sequential/resnet50/conv4_block2_add/add", "op": "AddV2", "input": ["StatefulPartitionedCall/sequential/resnet50/conv4_block1_out/Relu", "StatefulPartitionedCall/sequential/resnet50/conv4_block2_3_bn/FusedBatchNormV3"], "attr": {"T": {"type": "DT_FLOAT"}}}, {"name": "StatefulPartitionedCall/sequential/resnet50/conv4_block2_out/Relu", "op": "Relu", "input": ["StatefulPartitionedCall/sequential/resnet50/conv4_block2_add/add"], "attr": {"T": {"type": "DT_FLOAT"}}}, {"name": "StatefulPartitionedCall/sequential/resnet50/conv4_block3_1_relu/Relu", "op": "_FusedConv2D", "input": ["StatefulPartitionedCall/sequential/resnet50/conv4_block2_out/Relu", "StatefulPartitionedCall/sequential/resnet50/conv4_block3_1_conv/Conv2D_weights", "StatefulPartitionedCall/sequential/resnet50/conv4_block3_1_conv/Conv2D_bn_offset"], "device": "/device:CPU:0", "attr": {"num_host_args": {"i": "0"}, "_input_shapes": {"list": {"shape": [{"dim": [{"size": "-2"}, {"size": "-72"}, {"size": "-73"}, {"size": "1024"}]}, {"dim": [{"size": "1"}, {"size": "1"}, {"size": "1024"}, {"size": "256"}]}]}}, "filter_format": {"s": "SFdJTw=="}, "data_format": {"s": "TkhXQw=="}, "fused_ops": {"list": {"s": ["Qmlhc0FkZA==", "UmVsdQ=="]}}, "num_args": {"i": "1"}, "strides": {"list": {"i": ["1", "1", "1", "1"]}}, "TArgs": {"list": {"type": ["DT_FLOAT"]}}, "padding": {"s": "VkFMSUQ="}, "use_cudnn_on_gpu": {"b": true}, "leakyrelu_alpha": {"f": 0.2}, "epsilon": {"f": 0.0}, "T": {"type": "DT_FLOAT"}, "explicit_paddings": {"list": {}}, "dilations": {"list": {"i": ["1", "1", "1", "1"]}}}}, {"name": "StatefulPartitionedCall/sequential/resnet50/conv4_block3_2_relu/Relu", "op": "_FusedConv2D", "input": ["StatefulPartitionedCall/sequential/resnet50/conv4_block3_1_relu/Relu", "StatefulPartitionedCall/sequential/resnet50/conv4_block3_2_conv/Conv2D_weights", "StatefulPartitionedCall/sequential/resnet50/conv4_block3_2_conv/Conv2D_bn_offset"], "device": "/device:CPU:0", "attr": {"num_host_args": {"i": "0"}, "data_format": {"s": "TkhXQw=="}, "filter_format": {"s": "SFdJTw=="}, "_input_shapes": {"list": {"shape": [{"dim": [{"size": "-2"}, {"size": "-74"}, {"size": "-75"}, {"size": "256"}]}, {"dim": [{"size": "3"}, {"size": "3"}, {"size": "256"}, {"size": "256"}]}]}}, "strides": {"list": {"i": ["1", "1", "1", "1"]}}, "num_args": {"i": "1"}, "fused_ops": {"list": {"s": ["Qmlhc0FkZA==", "UmVsdQ=="]}}, "TArgs": {"list": {"type": ["DT_FLOAT"]}}, "padding": {"s": "U0FNRQ=="}, "use_cudnn_on_gpu": {"b": true}, "leakyrelu_alpha": {"f": 0.2}, "epsilon": {"f": 0.0}, "T": {"type": "DT_FLOAT"}, "explicit_paddings": {"list": {}}, "dilations": {"list": {"i": ["1", "1", "1", "1"]}}}}, {"name": "StatefulPartitionedCall/sequential/resnet50/conv4_block3_3_bn/FusedBatchNormV3", "op": "_FusedConv2D", "input": ["StatefulPartitionedCall/sequential/resnet50/conv4_block3_2_relu/Relu", "StatefulPartitionedCall/sequential/resnet50/conv4_block3_3_conv/Conv2D_weights", "StatefulPartitionedCall/sequential/resnet50/conv4_block3_3_conv/Conv2D_bn_offset"], "device": "/device:CPU:0", "attr": {"num_host_args": {"i": "0"}, "data_format": {"s": "TkhXQw=="}, "filter_format": {"s": "SFdJTw=="}, "_input_shapes": {"list": {"shape": [{"dim": [{"size": "-2"}, {"size": "-74"}, {"size": "-75"}, {"size": "256"}]}, {"dim": [{"size": "1"}, {"size": "1"}, {"size": "256"}, {"size": "1024"}]}]}}, "fused_ops": {"list": {"s": ["Qmlhc0FkZA=="]}}, "num_args": {"i": "1"}, "strides": {"list": {"i": ["1", "1", "1", "1"]}}, "TArgs": {"list": {"type": ["DT_FLOAT"]}}, "padding": {"s": "VkFMSUQ="}, "use_cudnn_on_gpu": {"b": true}, "leakyrelu_alpha": {"f": 0.2}, "epsilon": {"f": 0.0}, "T": {"type": "DT_FLOAT"}, "explicit_paddings": {"list": {}}, "dilations": {"list": {"i": ["1", "1", "1", "1"]}}}}, {"name": "StatefulPartitionedCall/sequential/resnet50/conv4_block3_add/add", "op": "AddV2", "input": ["StatefulPartitionedCall/sequential/resnet50/conv4_block2_out/Relu", "StatefulPartitionedCall/sequential/resnet50/conv4_block3_3_bn/FusedBatchNormV3"], "attr": {"T": {"type": "DT_FLOAT"}}}, {"name": "StatefulPartitionedCall/sequential/resnet50/conv4_block3_out/Relu", "op": "Relu", "input": ["StatefulPartitionedCall/sequential/resnet50/conv4_block3_add/add"], "attr": {"T": {"type": "DT_FLOAT"}}}, {"name": "StatefulPartitionedCall/sequential/resnet50/conv4_block4_1_relu/Relu", "op": "_FusedConv2D", "input": ["StatefulPartitionedCall/sequential/resnet50/conv4_block3_out/Relu", "StatefulPartitionedCall/sequential/resnet50/conv4_block4_1_conv/Conv2D_weights", "StatefulPartitionedCall/sequential/resnet50/conv4_block4_1_conv/Conv2D_bn_offset"], "device": "/device:CPU:0", "attr": {"num_host_args": {"i": "0"}, "_input_shapes": {"list": {"shape": [{"dim": [{"size": "-2"}, {"size": "-78"}, {"size": "-79"}, {"size": "1024"}]}, {"dim": [{"size": "1"}, {"size": "1"}, {"size": "1024"}, {"size": "256"}]}]}}, "filter_format": {"s": "SFdJTw=="}, "data_format": {"s": "TkhXQw=="}, "strides": {"list": {"i": ["1", "1", "1", "1"]}}, "num_args": {"i": "1"}, "fused_ops": {"list": {"s": ["Qmlhc0FkZA==", "UmVsdQ=="]}}, "TArgs": {"list": {"type": ["DT_FLOAT"]}}, "padding": {"s": "VkFMSUQ="}, "use_cudnn_on_gpu": {"b": true}, "leakyrelu_alpha": {"f": 0.2}, "epsilon": {"f": 0.0}, "T": {"type": "DT_FLOAT"}, "explicit_paddings": {"list": {}}, "dilations": {"list": {"i": ["1", "1", "1", "1"]}}}}, {"name": "StatefulPartitionedCall/sequential/resnet50/conv4_block4_2_relu/Relu", "op": "_FusedConv2D", "input": ["StatefulPartitionedCall/sequential/resnet50/conv4_block4_1_relu/Relu", "StatefulPartitionedCall/sequential/resnet50/conv4_block4_2_conv/Conv2D_weights", "StatefulPartitionedCall/sequential/resnet50/conv4_block4_2_conv/Conv2D_bn_offset"], "device": "/device:CPU:0", "attr": {"num_host_args": {"i": "0"}, "_input_shapes": {"list": {"shape": [{"dim": [{"size": "-2"}, {"size": "-80"}, {"size": "-81"}, {"size": "256"}]}, {"dim": [{"size": "3"}, {"size": "3"}, {"size": "256"}, {"size": "256"}]}]}}, "filter_format": {"s": "SFdJTw=="}, "data_format": {"s": "TkhXQw=="}, "fused_ops": {"list": {"s": ["Qmlhc0FkZA==", "UmVsdQ=="]}}, "num_args": {"i": "1"}, "strides": {"list": {"i": ["1", "1", "1", "1"]}}, "TArgs": {"list": {"type": ["DT_FLOAT"]}}, "padding": {"s": "U0FNRQ=="}, "use_cudnn_on_gpu": {"b": true}, "leakyrelu_alpha": {"f": 0.2}, "epsilon": {"f": 0.0}, "T": {"type": "DT_FLOAT"}, "explicit_paddings": {"list": {}}, "dilations": {"list": {"i": ["1", "1", "1", "1"]}}}}, {"name": "StatefulPartitionedCall/sequential/resnet50/conv4_block4_3_bn/FusedBatchNormV3", "op": "_FusedConv2D", "input": ["StatefulPartitionedCall/sequential/resnet50/conv4_block4_2_relu/Relu", "StatefulPartitionedCall/sequential/resnet50/conv4_block4_3_conv/Conv2D_weights", "StatefulPartitionedCall/sequential/resnet50/conv4_block4_3_conv/Conv2D_bn_offset"], "device": "/device:CPU:0", "attr": {"num_host_args": {"i": "0"}, "_input_shapes": {"list": {"shape": [{"dim": [{"size": "-2"}, {"size": "-80"}, {"size": "-81"}, {"size": "256"}]}, {"dim": [{"size": "1"}, {"size": "1"}, {"size": "256"}, {"size": "1024"}]}]}}, "filter_format": {"s": "SFdJTw=="}, "data_format": {"s": "TkhXQw=="}, "fused_ops": {"list": {"s": ["Qmlhc0FkZA=="]}}, "num_args": {"i": "1"}, "strides": {"list": {"i": ["1", "1", "1", "1"]}}, "TArgs": {"list": {"type": ["DT_FLOAT"]}}, "padding": {"s": "VkFMSUQ="}, "use_cudnn_on_gpu": {"b": true}, "leakyrelu_alpha": {"f": 0.2}, "epsilon": {"f": 0.0}, "T": {"type": "DT_FLOAT"}, "explicit_paddings": {"list": {}}, "dilations": {"list": {"i": ["1", "1", "1", "1"]}}}}, {"name": "StatefulPartitionedCall/sequential/resnet50/conv4_block4_add/add", "op": "AddV2", "input": ["StatefulPartitionedCall/sequential/resnet50/conv4_block3_out/Relu", "StatefulPartitionedCall/sequential/resnet50/conv4_block4_3_bn/FusedBatchNormV3"], "attr": {"T": {"type": "DT_FLOAT"}}}, {"name": "StatefulPartitionedCall/sequential/resnet50/conv4_block4_out/Relu", "op": "Relu", "input": ["StatefulPartitionedCall/sequential/resnet50/conv4_block4_add/add"], "attr": {"T": {"type": "DT_FLOAT"}}}, {"name": "StatefulPartitionedCall/sequential/resnet50/conv4_block5_1_relu/Relu", "op": "_FusedConv2D", "input": ["StatefulPartitionedCall/sequential/resnet50/conv4_block4_out/Relu", "StatefulPartitionedCall/sequential/resnet50/conv4_block5_1_conv/Conv2D_weights", "StatefulPartitionedCall/sequential/resnet50/conv4_block5_1_conv/Conv2D_bn_offset"], "device": "/device:CPU:0", "attr": {"num_host_args": {"i": "0"}, "data_format": {"s": "TkhXQw=="}, "filter_format": {"s": "SFdJTw=="}, "_input_shapes": {"list": {"shape": [{"dim": [{"size": "-2"}, {"size": "-84"}, {"size": "-85"}, {"size": "1024"}]}, {"dim": [{"size": "1"}, {"size": "1"}, {"size": "1024"}, {"size": "256"}]}]}}, "fused_ops": {"list": {"s": ["Qmlhc0FkZA==", "UmVsdQ=="]}}, "num_args": {"i": "1"}, "strides": {"list": {"i": ["1", "1", "1", "1"]}}, "TArgs": {"list": {"type": ["DT_FLOAT"]}}, "padding": {"s": "VkFMSUQ="}, "use_cudnn_on_gpu": {"b": true}, "leakyrelu_alpha": {"f": 0.2}, "epsilon": {"f": 0.0}, "T": {"type": "DT_FLOAT"}, "explicit_paddings": {"list": {}}, "dilations": {"list": {"i": ["1", "1", "1", "1"]}}}}, {"name": "StatefulPartitionedCall/sequential/resnet50/conv4_block5_2_relu/Relu", "op": "_FusedConv2D", "input": ["StatefulPartitionedCall/sequential/resnet50/conv4_block5_1_relu/Relu", "StatefulPartitionedCall/sequential/resnet50/conv4_block5_2_conv/Conv2D_weights", "StatefulPartitionedCall/sequential/resnet50/conv4_block5_2_conv/Conv2D_bn_offset"], "device": "/device:CPU:0", "attr": {"num_host_args": {"i": "0"}, "data_format": {"s": "TkhXQw=="}, "filter_format": {"s": "SFdJTw=="}, "_input_shapes": {"list": {"shape": [{"dim": [{"size": "-2"}, {"size": "-86"}, {"size": "-87"}, {"size": "256"}]}, {"dim": [{"size": "3"}, {"size": "3"}, {"size": "256"}, {"size": "256"}]}]}}, "fused_ops": {"list": {"s": ["Qmlhc0FkZA==", "UmVsdQ=="]}}, "num_args": {"i": "1"}, "strides": {"list": {"i": ["1", "1", "1", "1"]}}, "TArgs": {"list": {"type": ["DT_FLOAT"]}}, "padding": {"s": "U0FNRQ=="}, "use_cudnn_on_gpu": {"b": true}, "leakyrelu_alpha": {"f": 0.2}, "epsilon": {"f": 0.0}, "T": {"type": "DT_FLOAT"}, "explicit_paddings": {"list": {}}, "dilations": {"list": {"i": ["1", "1", "1", "1"]}}}}, {"name": "StatefulPartitionedCall/sequential/resnet50/conv4_block5_3_bn/FusedBatchNormV3", "op": "_FusedConv2D", "input": ["StatefulPartitionedCall/sequential/resnet50/conv4_block5_2_relu/Relu", "StatefulPartitionedCall/sequential/resnet50/conv4_block5_3_conv/Conv2D_weights", "StatefulPartitionedCall/sequential/resnet50/conv4_block5_3_conv/Conv2D_bn_offset"], "device": "/device:CPU:0", "attr": {"num_host_args": {"i": "0"}, "_input_shapes": {"list": {"shape": [{"dim": [{"size": "-2"}, {"size": "-86"}, {"size": "-87"}, {"size": "256"}]}, {"dim": [{"size": "1"}, {"size": "1"}, {"size": "256"}, {"size": "1024"}]}]}}, "filter_format": {"s": "SFdJTw=="}, "data_format": {"s": "TkhXQw=="}, "fused_ops": {"list": {"s": ["Qmlhc0FkZA=="]}}, "num_args": {"i": "1"}, "strides": {"list": {"i": ["1", "1", "1", "1"]}}, "TArgs": {"list": {"type": ["DT_FLOAT"]}}, "padding": {"s": "VkFMSUQ="}, "use_cudnn_on_gpu": {"b": true}, "leakyrelu_alpha": {"f": 0.2}, "epsilon": {"f": 0.0}, "T": {"type": "DT_FLOAT"}, "explicit_paddings": {"list": {}}, "dilations": {"list": {"i": ["1", "1", "1", "1"]}}}}, {"name": "StatefulPartitionedCall/sequential/resnet50/conv4_block5_add/add", "op": "AddV2", "input": ["StatefulPartitionedCall/sequential/resnet50/conv4_block4_out/Relu", "StatefulPartitionedCall/sequential/resnet50/conv4_block5_3_bn/FusedBatchNormV3"], "attr": {"T": {"type": "DT_FLOAT"}}}, {"name": "StatefulPartitionedCall/sequential/resnet50/conv4_block5_out/Relu", "op": "Relu", "input": ["StatefulPartitionedCall/sequential/resnet50/conv4_block5_add/add"], "attr": {"T": {"type": "DT_FLOAT"}}}, {"name": "StatefulPartitionedCall/sequential/resnet50/conv4_block6_1_relu/Relu", "op": "_FusedConv2D", "input": ["StatefulPartitionedCall/sequential/resnet50/conv4_block5_out/Relu", "StatefulPartitionedCall/sequential/resnet50/conv4_block6_1_conv/Conv2D_weights", "StatefulPartitionedCall/sequential/resnet50/conv4_block6_1_conv/Conv2D_bn_offset"], "device": "/device:CPU:0", "attr": {"num_host_args": {"i": "0"}, "_input_shapes": {"list": {"shape": [{"dim": [{"size": "-2"}, {"size": "-90"}, {"size": "-91"}, {"size": "1024"}]}, {"dim": [{"size": "1"}, {"size": "1"}, {"size": "1024"}, {"size": "256"}]}]}}, "filter_format": {"s": "SFdJTw=="}, "data_format": {"s": "TkhXQw=="}, "strides": {"list": {"i": ["1", "1", "1", "1"]}}, "num_args": {"i": "1"}, "fused_ops": {"list": {"s": ["Qmlhc0FkZA==", "UmVsdQ=="]}}, "TArgs": {"list": {"type": ["DT_FLOAT"]}}, "padding": {"s": "VkFMSUQ="}, "use_cudnn_on_gpu": {"b": true}, "leakyrelu_alpha": {"f": 0.2}, "epsilon": {"f": 0.0}, "T": {"type": "DT_FLOAT"}, "explicit_paddings": {"list": {}}, "dilations": {"list": {"i": ["1", "1", "1", "1"]}}}}, {"name": "StatefulPartitionedCall/sequential/resnet50/conv4_block6_2_relu/Relu", "op": "_FusedConv2D", "input": ["StatefulPartitionedCall/sequential/resnet50/conv4_block6_1_relu/Relu", "StatefulPartitionedCall/sequential/resnet50/conv4_block6_2_conv/Conv2D_weights", "StatefulPartitionedCall/sequential/resnet50/conv4_block6_2_conv/Conv2D_bn_offset"], "device": "/device:CPU:0", "attr": {"num_host_args": {"i": "0"}, "data_format": {"s": "TkhXQw=="}, "filter_format": {"s": "SFdJTw=="}, "_input_shapes": {"list": {"shape": [{"dim": [{"size": "-2"}, {"size": "-92"}, {"size": "-93"}, {"size": "256"}]}, {"dim": [{"size": "3"}, {"size": "3"}, {"size": "256"}, {"size": "256"}]}]}}, "strides": {"list": {"i": ["1", "1", "1", "1"]}}, "num_args": {"i": "1"}, "fused_ops": {"list": {"s": ["Qmlhc0FkZA==", "UmVsdQ=="]}}, "TArgs": {"list": {"type": ["DT_FLOAT"]}}, "padding": {"s": "U0FNRQ=="}, "use_cudnn_on_gpu": {"b": true}, "leakyrelu_alpha": {"f": 0.2}, "epsilon": {"f": 0.0}, "T": {"type": "DT_FLOAT"}, "explicit_paddings": {"list": {}}, "dilations": {"list": {"i": ["1", "1", "1", "1"]}}}}, {"name": "StatefulPartitionedCall/sequential/resnet50/conv4_block6_3_bn/FusedBatchNormV3", "op": "_FusedConv2D", "input": ["StatefulPartitionedCall/sequential/resnet50/conv4_block6_2_relu/Relu", "StatefulPartitionedCall/sequential/resnet50/conv4_block6_3_conv/Conv2D_weights", "StatefulPartitionedCall/sequential/resnet50/conv4_block6_3_conv/Conv2D_bn_offset"], "device": "/device:CPU:0", "attr": {"num_host_args": {"i": "0"}, "data_format": {"s": "TkhXQw=="}, "filter_format": {"s": "SFdJTw=="}, "_input_shapes": {"list": {"shape": [{"dim": [{"size": "-2"}, {"size": "-92"}, {"size": "-93"}, {"size": "256"}]}, {"dim": [{"size": "1"}, {"size": "1"}, {"size": "256"}, {"size": "1024"}]}]}}, "fused_ops": {"list": {"s": ["Qmlhc0FkZA=="]}}, "num_args": {"i": "1"}, "strides": {"list": {"i": ["1", "1", "1", "1"]}}, "TArgs": {"list": {"type": ["DT_FLOAT"]}}, "padding": {"s": "VkFMSUQ="}, "use_cudnn_on_gpu": {"b": true}, "leakyrelu_alpha": {"f": 0.2}, "epsilon": {"f": 0.0}, "T": {"type": "DT_FLOAT"}, "explicit_paddings": {"list": {}}, "dilations": {"list": {"i": ["1", "1", "1", "1"]}}}}, {"name": "StatefulPartitionedCall/sequential/resnet50/conv4_block6_add/add", "op": "AddV2", "input": ["StatefulPartitionedCall/sequential/resnet50/conv4_block5_out/Relu", "StatefulPartitionedCall/sequential/resnet50/conv4_block6_3_bn/FusedBatchNormV3"], "attr": {"T": {"type": "DT_FLOAT"}}}, {"name": "StatefulPartitionedCall/sequential/resnet50/conv4_block6_out/Relu", "op": "Relu", "input": ["StatefulPartitionedCall/sequential/resnet50/conv4_block6_add/add"], "attr": {"T": {"type": "DT_FLOAT"}}}, {"name": "StatefulPartitionedCall/sequential/resnet50/conv5_block1_0_bn/FusedBatchNormV3", "op": "_FusedConv2D", "input": ["StatefulPartitionedCall/sequential/resnet50/conv4_block6_out/Relu", "StatefulPartitionedCall/sequential/resnet50/conv5_block1_0_conv/Conv2D_weights", "StatefulPartitionedCall/sequential/resnet50/conv5_block1_0_conv/Conv2D_bn_offset"], "device": "/device:CPU:0", "attr": {"num_host_args": {"i": "0"}, "_input_shapes": {"list": {"shape": [{"dim": [{"size": "-2"}, {"size": "-96"}, {"size": "-97"}, {"size": "1024"}]}, {"dim": [{"size": "1"}, {"size": "1"}, {"size": "1024"}, {"size": "2048"}]}]}}, "filter_format": {"s": "SFdJTw=="}, "data_format": {"s": "TkhXQw=="}, "fused_ops": {"list": {"s": ["Qmlhc0FkZA=="]}}, "num_args": {"i": "1"}, "strides": {"list": {"i": ["1", "2", "2", "1"]}}, "TArgs": {"list": {"type": ["DT_FLOAT"]}}, "padding": {"s": "VkFMSUQ="}, "use_cudnn_on_gpu": {"b": true}, "leakyrelu_alpha": {"f": 0.2}, "epsilon": {"f": 0.0}, "T": {"type": "DT_FLOAT"}, "explicit_paddings": {"list": {}}, "dilations": {"list": {"i": ["1", "1", "1", "1"]}}}}, {"name": "StatefulPartitionedCall/sequential/resnet50/conv5_block1_1_relu/Relu", "op": "_FusedConv2D", "input": ["StatefulPartitionedCall/sequential/resnet50/conv4_block6_out/Relu", "StatefulPartitionedCall/sequential/resnet50/conv5_block1_1_conv/Conv2D_weights", "StatefulPartitionedCall/sequential/resnet50/conv5_block1_1_conv/Conv2D_bn_offset"], "device": "/device:CPU:0", "attr": {"num_host_args": {"i": "0"}, "data_format": {"s": "TkhXQw=="}, "filter_format": {"s": "SFdJTw=="}, "_input_shapes": {"list": {"shape": [{"dim": [{"size": "-2"}, {"size": "-96"}, {"size": "-97"}, {"size": "1024"}]}, {"dim": [{"size": "1"}, {"size": "1"}, {"size": "1024"}, {"size": "512"}]}]}}, "fused_ops": {"list": {"s": ["Qmlhc0FkZA==", "UmVsdQ=="]}}, "num_args": {"i": "1"}, "strides": {"list": {"i": ["1", "2", "2", "1"]}}, "TArgs": {"list": {"type": ["DT_FLOAT"]}}, "padding": {"s": "VkFMSUQ="}, "use_cudnn_on_gpu": {"b": true}, "leakyrelu_alpha": {"f": 0.2}, "epsilon": {"f": 0.0}, "T": {"type": "DT_FLOAT"}, "explicit_paddings": {"list": {}}, "dilations": {"list": {"i": ["1", "1", "1", "1"]}}}}, {"name": "StatefulPartitionedCall/sequential/resnet50/conv5_block1_2_relu/Relu", "op": "_FusedConv2D", "input": ["StatefulPartitionedCall/sequential/resnet50/conv5_block1_1_relu/Relu", "StatefulPartitionedCall/sequential/resnet50/conv5_block1_2_conv/Conv2D_weights", "StatefulPartitionedCall/sequential/resnet50/conv5_block1_2_conv/Conv2D_bn_offset"], "device": "/device:CPU:0", "attr": {"num_host_args": {"i": "0"}, "data_format": {"s": "TkhXQw=="}, "filter_format": {"s": "SFdJTw=="}, "_input_shapes": {"list": {"shape": [{"dim": [{"size": "-2"}, {"size": "-100"}, {"size": "-101"}, {"size": "512"}]}, {"dim": [{"size": "3"}, {"size": "3"}, {"size": "512"}, {"size": "512"}]}]}}, "fused_ops": {"list": {"s": ["Qmlhc0FkZA==", "UmVsdQ=="]}}, "num_args": {"i": "1"}, "strides": {"list": {"i": ["1", "1", "1", "1"]}}, "TArgs": {"list": {"type": ["DT_FLOAT"]}}, "padding": {"s": "U0FNRQ=="}, "use_cudnn_on_gpu": {"b": true}, "leakyrelu_alpha": {"f": 0.2}, "epsilon": {"f": 0.0}, "T": {"type": "DT_FLOAT"}, "explicit_paddings": {"list": {}}, "dilations": {"list": {"i": ["1", "1", "1", "1"]}}}}, {"name": "StatefulPartitionedCall/sequential/resnet50/conv5_block1_3_bn/FusedBatchNormV3", "op": "_FusedConv2D", "input": ["StatefulPartitionedCall/sequential/resnet50/conv5_block1_2_relu/Relu", "StatefulPartitionedCall/sequential/resnet50/conv5_block1_3_conv/Conv2D_weights", "StatefulPartitionedCall/sequential/resnet50/conv5_block1_3_conv/Conv2D_bn_offset"], "device": "/device:CPU:0", "attr": {"num_host_args": {"i": "0"}, "data_format": {"s": "TkhXQw=="}, "filter_format": {"s": "SFdJTw=="}, "_input_shapes": {"list": {"shape": [{"dim": [{"size": "-2"}, {"size": "-100"}, {"size": "-101"}, {"size": "512"}]}, {"dim": [{"size": "1"}, {"size": "1"}, {"size": "512"}, {"size": "2048"}]}]}}, "strides": {"list": {"i": ["1", "1", "1", "1"]}}, "num_args": {"i": "1"}, "fused_ops": {"list": {"s": ["Qmlhc0FkZA=="]}}, "TArgs": {"list": {"type": ["DT_FLOAT"]}}, "padding": {"s": "VkFMSUQ="}, "use_cudnn_on_gpu": {"b": true}, "leakyrelu_alpha": {"f": 0.2}, "epsilon": {"f": 0.0}, "T": {"type": "DT_FLOAT"}, "explicit_paddings": {"list": {}}, "dilations": {"list": {"i": ["1", "1", "1", "1"]}}}}, {"name": "StatefulPartitionedCall/sequential/resnet50/conv5_block1_add/add", "op": "AddV2", "input": ["StatefulPartitionedCall/sequential/resnet50/conv5_block1_0_bn/FusedBatchNormV3", "StatefulPartitionedCall/sequential/resnet50/conv5_block1_3_bn/FusedBatchNormV3"], "attr": {"T": {"type": "DT_FLOAT"}}}, {"name": "StatefulPartitionedCall/sequential/resnet50/conv5_block1_out/Relu", "op": "Relu", "input": ["StatefulPartitionedCall/sequential/resnet50/conv5_block1_add/add"], "attr": {"T": {"type": "DT_FLOAT"}}}, {"name": "StatefulPartitionedCall/sequential/resnet50/conv5_block2_1_relu/Relu", "op": "_FusedConv2D", "input": ["StatefulPartitionedCall/sequential/resnet50/conv5_block1_out/Relu", "StatefulPartitionedCall/sequential/resnet50/conv5_block2_1_conv/Conv2D_weights", "StatefulPartitionedCall/sequential/resnet50/conv5_block2_1_conv/Conv2D_bn_offset"], "device": "/device:CPU:0", "attr": {"num_host_args": {"i": "0"}, "data_format": {"s": "TkhXQw=="}, "filter_format": {"s": "SFdJTw=="}, "_input_shapes": {"list": {"shape": [{"dim": [{"size": "-2"}, {"size": "-104"}, {"size": "-105"}, {"size": "2048"}]}, {"dim": [{"size": "1"}, {"size": "1"}, {"size": "2048"}, {"size": "512"}]}]}}, "fused_ops": {"list": {"s": ["Qmlhc0FkZA==", "UmVsdQ=="]}}, "num_args": {"i": "1"}, "strides": {"list": {"i": ["1", "1", "1", "1"]}}, "TArgs": {"list": {"type": ["DT_FLOAT"]}}, "padding": {"s": "VkFMSUQ="}, "use_cudnn_on_gpu": {"b": true}, "leakyrelu_alpha": {"f": 0.2}, "epsilon": {"f": 0.0}, "T": {"type": "DT_FLOAT"}, "explicit_paddings": {"list": {}}, "dilations": {"list": {"i": ["1", "1", "1", "1"]}}}}, {"name": "StatefulPartitionedCall/sequential/resnet50/conv5_block2_2_relu/Relu", "op": "_FusedConv2D", "input": ["StatefulPartitionedCall/sequential/resnet50/conv5_block2_1_relu/Relu", "StatefulPartitionedCall/sequential/resnet50/conv5_block2_2_conv/Conv2D_weights", "StatefulPartitionedCall/sequential/resnet50/conv5_block2_2_conv/Conv2D_bn_offset"], "device": "/device:CPU:0", "attr": {"num_host_args": {"i": "0"}, "data_format": {"s": "TkhXQw=="}, "filter_format": {"s": "SFdJTw=="}, "_input_shapes": {"list": {"shape": [{"dim": [{"size": "-2"}, {"size": "-106"}, {"size": "-107"}, {"size": "512"}]}, {"dim": [{"size": "3"}, {"size": "3"}, {"size": "512"}, {"size": "512"}]}]}}, "strides": {"list": {"i": ["1", "1", "1", "1"]}}, "num_args": {"i": "1"}, "fused_ops": {"list": {"s": ["Qmlhc0FkZA==", "UmVsdQ=="]}}, "TArgs": {"list": {"type": ["DT_FLOAT"]}}, "padding": {"s": "U0FNRQ=="}, "use_cudnn_on_gpu": {"b": true}, "leakyrelu_alpha": {"f": 0.2}, "epsilon": {"f": 0.0}, "T": {"type": "DT_FLOAT"}, "explicit_paddings": {"list": {}}, "dilations": {"list": {"i": ["1", "1", "1", "1"]}}}}, {"name": "StatefulPartitionedCall/sequential/resnet50/conv5_block2_3_bn/FusedBatchNormV3", "op": "_FusedConv2D", "input": ["StatefulPartitionedCall/sequential/resnet50/conv5_block2_2_relu/Relu", "StatefulPartitionedCall/sequential/resnet50/conv5_block2_3_conv/Conv2D_weights", "StatefulPartitionedCall/sequential/resnet50/conv5_block2_3_conv/Conv2D_bn_offset"], "device": "/device:CPU:0", "attr": {"num_host_args": {"i": "0"}, "data_format": {"s": "TkhXQw=="}, "filter_format": {"s": "SFdJTw=="}, "_input_shapes": {"list": {"shape": [{"dim": [{"size": "-2"}, {"size": "-106"}, {"size": "-107"}, {"size": "512"}]}, {"dim": [{"size": "1"}, {"size": "1"}, {"size": "512"}, {"size": "2048"}]}]}}, "fused_ops": {"list": {"s": ["Qmlhc0FkZA=="]}}, "num_args": {"i": "1"}, "strides": {"list": {"i": ["1", "1", "1", "1"]}}, "TArgs": {"list": {"type": ["DT_FLOAT"]}}, "padding": {"s": "VkFMSUQ="}, "use_cudnn_on_gpu": {"b": true}, "leakyrelu_alpha": {"f": 0.2}, "epsilon": {"f": 0.0}, "T": {"type": "DT_FLOAT"}, "explicit_paddings": {"list": {}}, "dilations": {"list": {"i": ["1", "1", "1", "1"]}}}}, {"name": "StatefulPartitionedCall/sequential/resnet50/conv5_block2_add/add", "op": "AddV2", "input": ["StatefulPartitionedCall/sequential/resnet50/conv5_block1_out/Relu", "StatefulPartitionedCall/sequential/resnet50/conv5_block2_3_bn/FusedBatchNormV3"], "attr": {"T": {"type": "DT_FLOAT"}}}, {"name": "StatefulPartitionedCall/sequential/resnet50/conv5_block2_out/Relu", "op": "Relu", "input": ["StatefulPartitionedCall/sequential/resnet50/conv5_block2_add/add"], "attr": {"T": {"type": "DT_FLOAT"}}}, {"name": "StatefulPartitionedCall/sequential/resnet50/conv5_block3_1_relu/Relu", "op": "_FusedConv2D", "input": ["StatefulPartitionedCall/sequential/resnet50/conv5_block2_out/Relu", "StatefulPartitionedCall/sequential/resnet50/conv5_block3_1_conv/Conv2D_weights", "StatefulPartitionedCall/sequential/resnet50/conv5_block3_1_conv/Conv2D_bn_offset"], "device": "/device:CPU:0", "attr": {"num_host_args": {"i": "0"}, "_input_shapes": {"list": {"shape": [{"dim": [{"size": "-2"}, {"size": "-110"}, {"size": "-111"}, {"size": "2048"}]}, {"dim": [{"size": "1"}, {"size": "1"}, {"size": "2048"}, {"size": "512"}]}]}}, "filter_format": {"s": "SFdJTw=="}, "data_format": {"s": "TkhXQw=="}, "fused_ops": {"list": {"s": ["Qmlhc0FkZA==", "UmVsdQ=="]}}, "num_args": {"i": "1"}, "strides": {"list": {"i": ["1", "1", "1", "1"]}}, "TArgs": {"list": {"type": ["DT_FLOAT"]}}, "padding": {"s": "VkFMSUQ="}, "use_cudnn_on_gpu": {"b": true}, "leakyrelu_alpha": {"f": 0.2}, "epsilon": {"f": 0.0}, "T": {"type": "DT_FLOAT"}, "explicit_paddings": {"list": {}}, "dilations": {"list": {"i": ["1", "1", "1", "1"]}}}}, {"name": "StatefulPartitionedCall/sequential/resnet50/conv5_block3_2_relu/Relu", "op": "_FusedConv2D", "input": ["StatefulPartitionedCall/sequential/resnet50/conv5_block3_1_relu/Relu", "StatefulPartitionedCall/sequential/resnet50/conv5_block3_2_conv/Conv2D_weights", "StatefulPartitionedCall/sequential/resnet50/conv5_block3_2_conv/Conv2D_bn_offset"], "device": "/device:CPU:0", "attr": {"num_host_args": {"i": "0"}, "data_format": {"s": "TkhXQw=="}, "filter_format": {"s": "SFdJTw=="}, "_input_shapes": {"list": {"shape": [{"dim": [{"size": "-2"}, {"size": "-112"}, {"size": "-113"}, {"size": "512"}]}, {"dim": [{"size": "3"}, {"size": "3"}, {"size": "512"}, {"size": "512"}]}]}}, "strides": {"list": {"i": ["1", "1", "1", "1"]}}, "num_args": {"i": "1"}, "fused_ops": {"list": {"s": ["Qmlhc0FkZA==", "UmVsdQ=="]}}, "TArgs": {"list": {"type": ["DT_FLOAT"]}}, "padding": {"s": "U0FNRQ=="}, "use_cudnn_on_gpu": {"b": true}, "leakyrelu_alpha": {"f": 0.2}, "epsilon": {"f": 0.0}, "T": {"type": "DT_FLOAT"}, "explicit_paddings": {"list": {}}, "dilations": {"list": {"i": ["1", "1", "1", "1"]}}}}, {"name": "StatefulPartitionedCall/sequential/resnet50/conv5_block3_3_bn/FusedBatchNormV3", "op": "_FusedConv2D", "input": ["StatefulPartitionedCall/sequential/resnet50/conv5_block3_2_relu/Relu", "StatefulPartitionedCall/sequential/resnet50/conv5_block3_3_conv/Conv2D_weights", "StatefulPartitionedCall/sequential/resnet50/conv5_block3_3_conv/Conv2D_bn_offset"], "device": "/device:CPU:0", "attr": {"num_host_args": {"i": "0"}, "data_format": {"s": "TkhXQw=="}, "filter_format": {"s": "SFdJTw=="}, "_input_shapes": {"list": {"shape": [{"dim": [{"size": "-2"}, {"size": "-112"}, {"size": "-113"}, {"size": "512"}]}, {"dim": [{"size": "1"}, {"size": "1"}, {"size": "512"}, {"size": "2048"}]}]}}, "strides": {"list": {"i": ["1", "1", "1", "1"]}}, "num_args": {"i": "1"}, "fused_ops": {"list": {"s": ["Qmlhc0FkZA=="]}}, "TArgs": {"list": {"type": ["DT_FLOAT"]}}, "padding": {"s": "VkFMSUQ="}, "use_cudnn_on_gpu": {"b": true}, "leakyrelu_alpha": {"f": 0.2}, "epsilon": {"f": 0.0}, "T": {"type": "DT_FLOAT"}, "explicit_paddings": {"list": {}}, "dilations": {"list": {"i": ["1", "1", "1", "1"]}}}}, {"name": "StatefulPartitionedCall/sequential/resnet50/conv5_block3_add/add", "op": "AddV2", "input": ["StatefulPartitionedCall/sequential/resnet50/conv5_block2_out/Relu", "StatefulPartitionedCall/sequential/resnet50/conv5_block3_3_bn/FusedBatchNormV3"], "attr": {"T": {"type": "DT_FLOAT"}}}, {"name": "StatefulPartitionedCall/sequential/resnet50/conv5_block3_out/Relu", "op": "Relu", "input": ["StatefulPartitionedCall/sequential/resnet50/conv5_block3_add/add"], "attr": {"T": {"type": "DT_FLOAT"}}}, {"name": "StatefulPartitionedCall/sequential/resnet50/avg_pool/Mean", "op": "Mean", "input": ["StatefulPartitionedCall/sequential/resnet50/conv5_block3_out/Relu", "StatefulPartitionedCall/sequential/resnet50/avg_pool/Mean/reduction_indices"], "attr": {"T": {"type": "DT_FLOAT"}, "Tidx": {"type": "DT_INT32"}, "keep_dims": {"b": false}}}, {"name": "StatefulPartitionedCall/sequential/dense/BiasAdd", "op": "_FusedMatMul", "input": ["StatefulPartitionedCall/sequential/resnet50/avg_pool/Mean", "StatefulPartitionedCall/sequential/dense/MatMul/ReadVariableOp", "StatefulPartitionedCall/sequential/dense/BiasAdd/ReadVariableOp"], "device": "/device:CPU:0", "attr": {"transpose_a": {"b": false}, "_input_shapes": {"list": {"shape": [{"dim": [{"size": "-2"}, {"size": "2048"}]}, {"dim": [{"size": "2048"}, {"size": "5"}]}]}}, "transpose_b": {"b": false}, "fused_ops": {"list": {"s": ["Qmlhc0FkZA=="]}}, "num_args": {"i": "1"}, "leakyrelu_alpha": {"f": 0.2}, "epsilon": {"f": 0.0}, "T": {"type": "DT_FLOAT"}}}, {"name": "StatefulPartitionedCall/sequential/dense/Softmax", "op": "Softmax", "input": ["StatefulPartitionedCall/sequential/dense/BiasAdd"], "attr": {"T": {"type": "DT_FLOAT"}}}, {"name": "Identity", "op": "Identity", "input": ["StatefulPartitionedCall/sequential/dense/Softmax"], "attr": {"T": {"type": "DT_FLOAT"}}}], "library": {}, "versions": {"producer": 1645}}, "weightsManifest": [{"paths": ["group1-shard1of23.bin", "group1-shard2of23.bin", "group1-shard3of23.bin", "group1-shard4of23.bin", "group1-shard5of23.bin", "group1-shard6of23.bin", "group1-shard7of23.bin", "group1-shard8of23.bin", "group1-shard9of23.bin", "group1-shard10of23.bin", "group1-shard11of23.bin", "group1-shard12of23.bin", "group1-shard13of23.bin", "group1-shard14of23.bin", "group1-shard15of23.bin", "group1-shard16of23.bin", "group1-shard17of23.bin", "group1-shard18of23.bin", "group1-shard19of23.bin", "group1-shard20of23.bin", "group1-shard21of23.bin", "group1-shard22of23.bin", "group1-shard23of23.bin"], "weights": [{"name": "StatefulPartitionedCall/sequential/resnet50/conv1_pad/Pad/paddings", "shape": [4, 2], "dtype": "int32"}, {"name": "StatefulPartitionedCall/sequential/resnet50/pool1_pad/Pad/paddings", "shape": [4, 2], "dtype": "int32"}, {"name": "StatefulPartitionedCall/sequential/resnet50/avg_pool/Mean/reduction_indices", "shape": [2], "dtype": "int32"}, {"name": "StatefulPartitionedCall/sequential/dense/MatMul/ReadVariableOp", "shape": [2048, 5], "dtype": "float32"}, {"name": "StatefulPartitionedCall/sequential/dense/BiasAdd/ReadVariableOp", "shape": [5], "dtype": "float32"}, {"name": "StatefulPartitionedCall/sequential/resnet50/conv1_conv/Conv2D_weights", "shape": [7, 7, 3, 64], "dtype": "float32"}, {"name": "StatefulPartitionedCall/sequential/resnet50/conv4_block5_1_conv/Conv2D_bn_offset", "shape": [256], "dtype": "float32"}, {"name": "StatefulPartitionedCall/sequential/resnet50/conv1_conv/Conv2D_bn_offset", "shape": [64], "dtype": "float32"}, {"name": "StatefulPartitionedCall/sequential/resnet50/conv2_block1_0_conv/Conv2D_weights", "shape": [1, 1, 64, 256], "dtype": "float32"}, {"name": "StatefulPartitionedCall/sequential/resnet50/conv2_block1_0_conv/Conv2D_bn_offset", "shape": [256], "dtype": "float32"}, {"name": "StatefulPartitionedCall/sequential/resnet50/conv2_block1_1_conv/Conv2D_weights", "shape": [1, 1, 64, 64], "dtype": "float32"}, {"name": "StatefulPartitionedCall/sequential/resnet50/conv4_block5_2_conv/Conv2D_weights", "shape": [3, 3, 256, 256], "dtype": "float32"}, {"name": "StatefulPartitionedCall/sequential/resnet50/conv2_block1_1_conv/Conv2D_bn_offset", "shape": [64], "dtype": "float32"}, {"name": "StatefulPartitionedCall/sequential/resnet50/conv5_block2_3_conv/Conv2D_bn_offset", "shape": [2048], "dtype": "float32"}, {"name": "StatefulPartitionedCall/sequential/resnet50/conv2_block1_2_conv/Conv2D_weights", "shape": [3, 3, 64, 64], "dtype": "float32"}, {"name": "StatefulPartitionedCall/sequential/resnet50/conv4_block5_2_conv/Conv2D_bn_offset", "shape": [256], "dtype": "float32"}, {"name": "StatefulPartitionedCall/sequential/resnet50/conv2_block1_2_conv/Conv2D_bn_offset", "shape": [64], "dtype": "float32"}, {"name": "StatefulPartitionedCall/sequential/resnet50/conv2_block1_3_conv/Conv2D_weights", "shape": [1, 1, 64, 256], "dtype": "float32"}, {"name": "StatefulPartitionedCall/sequential/resnet50/conv2_block1_3_conv/Conv2D_bn_offset", "shape": [256], "dtype": "float32"}, {"name": "StatefulPartitionedCall/sequential/resnet50/conv2_block2_1_conv/Conv2D_weights", "shape": [1, 1, 256, 64], "dtype": "float32"}, {"name": "StatefulPartitionedCall/sequential/resnet50/conv4_block5_3_conv/Conv2D_weights", "shape": [1, 1, 256, 1024], "dtype": "float32"}, {"name": "StatefulPartitionedCall/sequential/resnet50/conv2_block2_1_conv/Conv2D_bn_offset", "shape": [64], "dtype": "float32"}, {"name": "StatefulPartitionedCall/sequential/resnet50/conv2_block2_2_conv/Conv2D_weights", "shape": [3, 3, 64, 64], "dtype": "float32"}, {"name": "StatefulPartitionedCall/sequential/resnet50/conv4_block5_3_conv/Conv2D_bn_offset", "shape": [1024], "dtype": "float32"}, {"name": "StatefulPartitionedCall/sequential/resnet50/conv2_block2_2_conv/Conv2D_bn_offset", "shape": [64], "dtype": "float32"}, {"name": "StatefulPartitionedCall/sequential/resnet50/conv2_block2_3_conv/Conv2D_weights", "shape": [1, 1, 64, 256], "dtype": "float32"}, {"name": "StatefulPartitionedCall/sequential/resnet50/conv2_block2_3_conv/Conv2D_bn_offset", "shape": [256], "dtype": "float32"}, {"name": "StatefulPartitionedCall/sequential/resnet50/conv2_block3_1_conv/Conv2D_weights", "shape": [1, 1, 256, 64], "dtype": "float32"}, {"name": "StatefulPartitionedCall/sequential/resnet50/conv2_block3_1_conv/Conv2D_bn_offset", "shape": [64], "dtype": "float32"}, {"name": "StatefulPartitionedCall/sequential/resnet50/conv4_block6_1_conv/Conv2D_weights", "shape": [1, 1, 1024, 256], "dtype": "float32"}, {"name": "StatefulPartitionedCall/sequential/resnet50/conv2_block3_2_conv/Conv2D_weights", "shape": [3, 3, 64, 64], "dtype": "float32"}, {"name": "StatefulPartitionedCall/sequential/resnet50/conv2_block3_2_conv/Conv2D_bn_offset", "shape": [64], "dtype": "float32"}, {"name": "StatefulPartitionedCall/sequential/resnet50/conv4_block6_1_conv/Conv2D_bn_offset", "shape": [256], "dtype": "float32"}, {"name": "StatefulPartitionedCall/sequential/resnet50/conv2_block3_3_conv/Conv2D_weights", "shape": [1, 1, 64, 256], "dtype": "float32"}, {"name": "StatefulPartitionedCall/sequential/resnet50/conv5_block3_1_conv/Conv2D_weights", "shape": [1, 1, 2048, 512], "dtype": "float32"}, {"name": "StatefulPartitionedCall/sequential/resnet50/conv2_block3_3_conv/Conv2D_bn_offset", "shape": [256], "dtype": "float32"}, {"name": "StatefulPartitionedCall/sequential/resnet50/conv3_block1_0_conv/Conv2D_weights", "shape": [1, 1, 256, 512], "dtype": "float32"}, {"name": "StatefulPartitionedCall/sequential/resnet50/conv3_block1_0_conv/Conv2D_bn_offset", "shape": [512], "dtype": "float32"}, {"name": "StatefulPartitionedCall/sequential/resnet50/conv3_block1_1_conv/Conv2D_weights", "shape": [1, 1, 256, 128], "dtype": "float32"}, {"name": "StatefulPartitionedCall/sequential/resnet50/conv4_block6_2_conv/Conv2D_weights", "shape": [3, 3, 256, 256], "dtype": "float32"}, {"name": "StatefulPartitionedCall/sequential/resnet50/conv3_block1_1_conv/Conv2D_bn_offset", "shape": [128], "dtype": "float32"}, {"name": "StatefulPartitionedCall/sequential/resnet50/conv3_block1_2_conv/Conv2D_weights", "shape": [3, 3, 128, 128], "dtype": "float32"}, {"name": "StatefulPartitionedCall/sequential/resnet50/conv4_block6_2_conv/Conv2D_bn_offset", "shape": [256], "dtype": "float32"}, {"name": "StatefulPartitionedCall/sequential/resnet50/conv3_block1_2_conv/Conv2D_bn_offset", "shape": [128], "dtype": "float32"}, {"name": "StatefulPartitionedCall/sequential/resnet50/conv5_block3_1_conv/Conv2D_bn_offset", "shape": [512], "dtype": "float32"}, {"name": "StatefulPartitionedCall/sequential/resnet50/conv3_block1_3_conv/Conv2D_weights", "shape": [1, 1, 128, 512], "dtype": "float32"}, {"name": "StatefulPartitionedCall/sequential/resnet50/conv3_block1_3_conv/Conv2D_bn_offset", "shape": [512], "dtype": "float32"}, {"name": "StatefulPartitionedCall/sequential/resnet50/conv3_block2_1_conv/Conv2D_weights", "shape": [1, 1, 512, 128], "dtype": "float32"}, {"name": "StatefulPartitionedCall/sequential/resnet50/conv4_block6_3_conv/Conv2D_weights", "shape": [1, 1, 256, 1024], "dtype": "float32"}, {"name": "StatefulPartitionedCall/sequential/resnet50/conv3_block2_1_conv/Conv2D_bn_offset", "shape": [128], "dtype": "float32"}, {"name": "StatefulPartitionedCall/sequential/resnet50/conv3_block2_2_conv/Conv2D_weights", "shape": [3, 3, 128, 128], "dtype": "float32"}, {"name": "StatefulPartitionedCall/sequential/resnet50/conv4_block6_3_conv/Conv2D_bn_offset", "shape": [1024], "dtype": "float32"}, {"name": "StatefulPartitionedCall/sequential/resnet50/conv3_block2_2_conv/Conv2D_bn_offset", "shape": [128], "dtype": "float32"}, {"name": "StatefulPartitionedCall/sequential/resnet50/conv3_block2_3_conv/Conv2D_weights", "shape": [1, 1, 128, 512], "dtype": "float32"}, {"name": "StatefulPartitionedCall/sequential/resnet50/conv3_block2_3_conv/Conv2D_bn_offset", "shape": [512], "dtype": "float32"}, {"name": "StatefulPartitionedCall/sequential/resnet50/conv3_block3_1_conv/Conv2D_weights", "shape": [1, 1, 512, 128], "dtype": "float32"}, {"name": "StatefulPartitionedCall/sequential/resnet50/conv3_block3_1_conv/Conv2D_bn_offset", "shape": [128], "dtype": "float32"}, {"name": "StatefulPartitionedCall/sequential/resnet50/conv5_block1_0_conv/Conv2D_weights", "shape": [1, 1, 1024, 2048], "dtype": "float32"}, {"name": "StatefulPartitionedCall/sequential/resnet50/conv3_block3_2_conv/Conv2D_weights", "shape": [3, 3, 128, 128], "dtype": "float32"}, {"name": "StatefulPartitionedCall/sequential/resnet50/conv3_block3_2_conv/Conv2D_bn_offset", "shape": [128], "dtype": "float32"}, {"name": "StatefulPartitionedCall/sequential/resnet50/conv5_block1_0_conv/Conv2D_bn_offset", "shape": [2048], "dtype": "float32"}, {"name": "StatefulPartitionedCall/sequential/resnet50/conv3_block3_3_conv/Conv2D_weights", "shape": [1, 1, 128, 512], "dtype": "float32"}, {"name": "StatefulPartitionedCall/sequential/resnet50/conv3_block3_3_conv/Conv2D_bn_offset", "shape": [512], "dtype": "float32"}, {"name": "StatefulPartitionedCall/sequential/resnet50/conv3_block4_1_conv/Conv2D_weights", "shape": [1, 1, 512, 128], "dtype": "float32"}, {"name": "StatefulPartitionedCall/sequential/resnet50/conv5_block1_1_conv/Conv2D_weights", "shape": [1, 1, 1024, 512], "dtype": "float32"}, {"name": "StatefulPartitionedCall/sequential/resnet50/conv3_block4_1_conv/Conv2D_bn_offset", "shape": [128], "dtype": "float32"}, {"name": "StatefulPartitionedCall/sequential/resnet50/conv5_block3_2_conv/Conv2D_weights", "shape": [3, 3, 512, 512], "dtype": "float32"}, {"name": "StatefulPartitionedCall/sequential/resnet50/conv3_block4_2_conv/Conv2D_weights", "shape": [3, 3, 128, 128], "dtype": "float32"}, {"name": "StatefulPartitionedCall/sequential/resnet50/conv5_block1_1_conv/Conv2D_bn_offset", "shape": [512], "dtype": "float32"}, {"name": "StatefulPartitionedCall/sequential/resnet50/conv3_block4_2_conv/Conv2D_bn_offset", "shape": [128], "dtype": "float32"}, {"name": "StatefulPartitionedCall/sequential/resnet50/conv3_block4_3_conv/Conv2D_weights", "shape": [1, 1, 128, 512], "dtype": "float32"}, {"name": "StatefulPartitionedCall/sequential/resnet50/conv3_block4_3_conv/Conv2D_bn_offset", "shape": [512], "dtype": "float32"}, {"name": "StatefulPartitionedCall/sequential/resnet50/conv4_block1_0_conv/Conv2D_weights", "shape": [1, 1, 512, 1024], "dtype": "float32"}, {"name": "StatefulPartitionedCall/sequential/resnet50/conv5_block1_2_conv/Conv2D_weights", "shape": [3, 3, 512, 512], "dtype": "float32"}, {"name": "StatefulPartitionedCall/sequential/resnet50/conv4_block1_0_conv/Conv2D_bn_offset", "shape": [1024], "dtype": "float32"}, {"name": "StatefulPartitionedCall/sequential/resnet50/conv4_block1_1_conv/Conv2D_weights", "shape": [1, 1, 512, 256], "dtype": "float32"}, {"name": "StatefulPartitionedCall/sequential/resnet50/conv5_block3_2_conv/Conv2D_bn_offset", "shape": [512], "dtype": "float32"}, {"name": "StatefulPartitionedCall/sequential/resnet50/conv4_block1_1_conv/Conv2D_bn_offset", "shape": [256], "dtype": "float32"}, {"name": "StatefulPartitionedCall/sequential/resnet50/conv5_block1_2_conv/Conv2D_bn_offset", "shape": [512], "dtype": "float32"}, {"name": "StatefulPartitionedCall/sequential/resnet50/conv4_block1_2_conv/Conv2D_weights", "shape": [3, 3, 256, 256], "dtype": "float32"}, {"name": "StatefulPartitionedCall/sequential/resnet50/conv4_block1_2_conv/Conv2D_bn_offset", "shape": [256], "dtype": "float32"}, {"name": "StatefulPartitionedCall/sequential/resnet50/conv4_block1_3_conv/Conv2D_weights", "shape": [1, 1, 256, 1024], "dtype": "float32"}, {"name": "StatefulPartitionedCall/sequential/resnet50/conv5_block1_3_conv/Conv2D_weights", "shape": [1, 1, 512, 2048], "dtype": "float32"}, {"name": "StatefulPartitionedCall/sequential/resnet50/conv4_block1_3_conv/Conv2D_bn_offset", "shape": [1024], "dtype": "float32"}, {"name": "StatefulPartitionedCall/sequential/resnet50/conv4_block2_1_conv/Conv2D_weights", "shape": [1, 1, 1024, 256], "dtype": "float32"}, {"name": "StatefulPartitionedCall/sequential/resnet50/conv4_block2_1_conv/Conv2D_bn_offset", "shape": [256], "dtype": "float32"}, {"name": "StatefulPartitionedCall/sequential/resnet50/conv5_block1_3_conv/Conv2D_bn_offset", "shape": [2048], "dtype": "float32"}, {"name": "StatefulPartitionedCall/sequential/resnet50/conv4_block2_2_conv/Conv2D_weights", "shape": [3, 3, 256, 256], "dtype": "float32"}, {"name": "StatefulPartitionedCall/sequential/resnet50/conv4_block2_2_conv/Conv2D_bn_offset", "shape": [256], "dtype": "float32"}, {"name": "StatefulPartitionedCall/sequential/resnet50/conv4_block2_3_conv/Conv2D_weights", "shape": [1, 1, 256, 1024], "dtype": "float32"}, {"name": "StatefulPartitionedCall/sequential/resnet50/conv4_block2_3_conv/Conv2D_bn_offset", "shape": [1024], "dtype": "float32"}, {"name": "StatefulPartitionedCall/sequential/resnet50/conv4_block3_1_conv/Conv2D_weights", "shape": [1, 1, 1024, 256], "dtype": "float32"}, {"name": "StatefulPartitionedCall/sequential/resnet50/conv5_block2_1_conv/Conv2D_weights", "shape": [1, 1, 2048, 512], "dtype": "float32"}, {"name": "StatefulPartitionedCall/sequential/resnet50/conv4_block3_1_conv/Conv2D_bn_offset", "shape": [256], "dtype": "float32"}, {"name": "StatefulPartitionedCall/sequential/resnet50/conv5_block3_3_conv/Conv2D_weights", "shape": [1, 1, 512, 2048], "dtype": "float32"}, {"name": "StatefulPartitionedCall/sequential/resnet50/conv4_block3_2_conv/Conv2D_weights", "shape": [3, 3, 256, 256], "dtype": "float32"}, {"name": "StatefulPartitionedCall/sequential/resnet50/conv5_block2_1_conv/Conv2D_bn_offset", "shape": [512], "dtype": "float32"}, {"name": "StatefulPartitionedCall/sequential/resnet50/conv4_block3_2_conv/Conv2D_bn_offset", "shape": [256], "dtype": "float32"}, {"name": "StatefulPartitionedCall/sequential/resnet50/conv4_block3_3_conv/Conv2D_weights", "shape": [1, 1, 256, 1024], "dtype": "float32"}, {"name": "StatefulPartitionedCall/sequential/resnet50/conv4_block3_3_conv/Conv2D_bn_offset", "shape": [1024], "dtype": "float32"}, {"name": "StatefulPartitionedCall/sequential/resnet50/conv4_block4_1_conv/Conv2D_weights", "shape": [1, 1, 1024, 256], "dtype": "float32"}, {"name": "StatefulPartitionedCall/sequential/resnet50/conv5_block2_2_conv/Conv2D_weights", "shape": [3, 3, 512, 512], "dtype": "float32"}, {"name": "StatefulPartitionedCall/sequential/resnet50/conv4_block4_1_conv/Conv2D_bn_offset", "shape": [256], "dtype": "float32"}, {"name": "StatefulPartitionedCall/sequential/resnet50/conv5_block3_3_conv/Conv2D_bn_offset", "shape": [2048], "dtype": "float32"}, {"name": "StatefulPartitionedCall/sequential/resnet50/conv4_block4_2_conv/Conv2D_weights", "shape": [3, 3, 256, 256], "dtype": "float32"}, {"name": "StatefulPartitionedCall/sequential/resnet50/conv5_block2_2_conv/Conv2D_bn_offset", "shape": [512], "dtype": "float32"}, {"name": "StatefulPartitionedCall/sequential/resnet50/conv4_block4_2_conv/Conv2D_bn_offset", "shape": [256], "dtype": "float32"}, {"name": "StatefulPartitionedCall/sequential/resnet50/conv4_block4_3_conv/Conv2D_weights", "shape": [1, 1, 256, 1024], "dtype": "float32"}, {"name": "StatefulPartitionedCall/sequential/resnet50/conv4_block4_3_conv/Conv2D_bn_offset", "shape": [1024], "dtype": "float32"}, {"name": "StatefulPartitionedCall/sequential/resnet50/conv4_block5_1_conv/Conv2D_weights", "shape": [1, 1, 1024, 256], "dtype": "float32"}, {"name": "StatefulPartitionedCall/sequential/resnet50/conv5_block2_3_conv/Conv2D_weights", "shape": [1, 1, 512, 2048], "dtype": "float32"}]}]}